model_repository/graph_embeddings/1/model.pt (torch, 855375 bytes, 9 tensors)

weight f4 [256, 100]
00000000: aa6d 49be b30c 15be f5c6 dcbd 04c1 e83d
00000010: 68fd ac3d c81c 983e d6be d8bd a9fb 063c
00000020: a44f 7cbe 5b59 fa3d 1e24 b43d 131e 1ebd
00000030: 7659 2dbe 619d 2cbe fdc4 033d ee4f d4be
00000040: ae6e 3ebd 7ddf 9a3e df32 583d 3265 14be
00000050: d3e9 3e3d b39b 90be 4321 85bd 239b 59be
00000060: 290b 8dbc 77b4 aabd 0ebd ab3c 26a1 a5be
00000070: af35 c13d d8ad 78be 9a7c 7abe 926e 653e
00000080: 7e40 f53d 420a 7b3e 97f8 46bd 61bc 09be
00000090: 87d0 093e df64 39bc a147 a2be 73db e23d
000000a0: 69d1 523e 1c69 df3c 8a78 9f3e f44f b93c
000000b0: bebb b239 9e51 153e 6bd2 afbd 1059 ffbd
000000c0: 3d14 11be bc39 223d e90c a13e 6bbf fe3d
000000d0: 022c 10bd dab1 85bd dad2 043e b466 91be
000000e0: 474e 83be 2063 13bd c9f3 09bd 5828 e6bd
000000f0: aaa9 f8bb 8994 6cbe c3fa 15be 28bd b03d
00000100: afc0 25bd 3e59 f3bd f86f 1cbd 2bbd 94bd
00000110: 3f6a 29be cd04 b03d b812 ccbd 2bf2 12be
00000120: 4665 4ebd 754c ad3d 99e5 2f3e c4fa 6fbd
00000130: 1a00 a5bd 40e4 563c 856e 2a3e b9a3 06bb
00000140: 4137 963e 22e1 52be 196e 94ba 06c3 103d
00000150: 147b 4fbd 8e79 553e 666b d1bd bf94 f6bb
00000160: 968a f23d c422 463e 6566 49be 1fb1 97bd
00000170: 2b65 4fbd 087f a3bd b0d0 8e3b 3140 72bd
00000180: cc40 0ebd 5ac9 5d3d e0c8 9cbd d91f 9ebd
00000190: 6b16 3fbe 7b70 c93d 3903 08bd e5f9 c23d
000001a0: 98fb 483e fe5e 8bbe 6fff 2c3e d35b 3f3e
000001b0: f2be 7abd 385c 37be 7bb9 883c 1d21 1bbe
000001c0: 2549 e0bd 52a0 763e 4179 d7bd eff8 60be
000001d0: 0d41 dcbd 3306 bdbd 9205 8dbe 7968 11be
000001e0: 34ad 413d c20f eabd 0d5a 18be b4a5 79bd
000001f0: be4d 57be 54c9 bd3d 06ff 9dbe fc60 45bd
00000200: 7620 e5be 4bb2 08bd 9b0e 6dbe cbc1 80bd
00000210: 2bbc 2a3c c2e6 05be 9c82 23be e215 a43d
00000220: 62b4 803e ee1d 07be 5db7 80bd d8d7 593e
00000230: 9a76 9bbe 878f bc3d c329 b73b ed1d 9b3d
00000240: 81bb 0d3d da21 3abd 9d3c 98be f65b fdbe
00000250: e0bf 89bd 96cd f9bc 05d9 abbb 2eb0 c5bc
00000260: 8478 40bd 09e5 38be 1327 b2bc 10dc debd
00000270: 1b9f 80bd da41 e33d 6b49 d8bd 06a7 8bbe
00000280: e7f4 8b3d dac4 d43e f3a3 89bd 0bbe 14be
00000290: a49c 76bd 5a84 223e efc8 6f3e 57e4 3bbc
000002a0: 8082 17be 3ab9 bf3c 22d3 86be f938 523e
000002b0: 6bbe 65be 65e9 2e3e 1ea8 373e 4b6c 3abd
000002c0: 9e06 78bc 54a5 38be 7bc5 e33d 1504 7ebd
000002d0: 6cd6 813e bbc1 003e 5a20 4dbd ea51 423e
000002e0: 4ebd 073e 8037 a93d dcdb 09be 6134 023e
000002f0: 3d03 f4bd 0dad 6abc 78e6 d9bd d79b 6dbe
00000300: be37 ba3c 4e7e 6bbe 40ab b33e 931c 053e
00000310: a2bb fd3d 3bb1 03bd e6a3 c93b 8ba9 fbbd
00000320: 136a 163c 1b0a 8d3e be9e 4fbe de90 ba3e
00000330: 86e8 683e ba97 a9be 4b31 2a3d a7ba fbbb
00000340: 3f9e e3be 6d87 653e a288 31be 5105 1bbe
00000350: a6f7 493e ce2a 6b3e e9af d1bd 334c 813c
00000360: fde1 8e3d bc7d 9ebd fe73 9bbe 3f6d 193d
00000370: 2e9f 4cbd e704 553e 80a8 593e fd4d 2e3d
00000380: 8576 82be 0100 ba3d 353f c6be 1625 26be
00000390: 0486 dbbe 59a8 21be 4d48 7ebc 67ee 9e3d
000003a0: b55f 783e bdd5 17be eb0a bd3d dd25 583c
000003b0: ea24 a4bc 0738 12bd 748f 573e 2cdc 6a3e
000003c0: b041 ae3e bfa1 1bbe 61f6 b8be 1a90 863e
000003d0: 80ce 6d3e 0ac5 453e 65fa abbe ac29 d73c
000003e0: 7da9 e43c 240c c13e cd46 ac3d 8cd5 593e
000003f0: df80 24be 1474 d6bd 669a a9bd eac0 c13d
-0.1967074 -0.14555626 -0.107801355 0.1136494 0.08446771 0.29709458 -0.10583274 0.008238711
-0.24639755 0.122240745 0.08795951 -0.0386029 -0.16928658 -0.1685691 0.032170285 -0.41467232
-0.04649227 0.30248633 0.05278289 -0.14491728 0.04660971 -0.2824379 -0.06500485 -0.21250586
-0.017217236 -0.08335202 0.020964172 -0.3234951 0.094340675 -0.24285066 -0.24461594 0.2240546
0.119751915 0.24515632 -0.048576917 -0.13450767 0.13458453 -0.011315553 -0.31695274 0.11077013
0.20587696 0.0272718 0.31146652 0.022621132 0.00034090684 0.14581916 -0.08585056 -0.12468159
-0.14167877 0.03960584 0.31455162 0.12438854 -0.03519822 -0.06528063 0.12971058 -0.2839867
-0.25645658 -0.035983205 -0.033679757 -0.11238164 -0.007588585 -0.23103537 -0.14646439 0.08629829
-0.04046696 -0.11882256 -0.03819272 -0.072626434 -0.16544436 0.08594666 -0.09964508 -0.14350192
-0.05038955 0.08461849 0.17177428 -0.058588758 -0.0805666 0.0131159425 0.16643722 -0.0020544364
0.2933903 -0.20593694 -0.0011324316 0.03534224 -0.050654486 0.2084715 -0.10225563 -0.007525056
0.118428394 0.193492 -0.19667967 -0.0740683 -0.05063359 -0.07983214 0.0043583736 -0.05914325
-0.034729764 0.054147102 -0.07655501 -0.07720918 -0.18660896 0.09835907 -0.0332062 0.0952032
0.19627225 -0.2722091 0.16894315 0.18687372 -0.061217256 -0.17906272 0.016690006 -0.1514935
-0.10951451 0.24084595 -0.10521174 -0.2196996 -0.10754595 -0.09229698 -0.27543312 -0.1420001
0.04728432 -0.11428787 -0.14878102 -0.060949042 -0.2102575 0.09266916 -0.3085863 -0.048188195
-0.44751328 -0.03337316 -0.23150103 -0.06286963 0.010420839 -0.13076308 -0.15967792 0.08011986
0.2513762 -0.13195011 -0.06284974 0.21273744 -0.30363923 0.09207063 0.005589695 0.07574067
0.034602646 -0.04544244 -0.29733744 -0.49484223 -0.067260504 -0.030493539 -0.0052443766 -0.02413186
-0.046989933 -0.1805612 -0.021747148 -0.10881817 -0.06280347 0.110965446 -0.10560878 -0.27275866
0.06833821 0.41556436 -0.06720724 -0.1452562 -0.060207978 0.158708 0.23416494 -0.011468015
-0.14795876 0.023403753 -0.26332957 0.20529546 -0.2243592 0.1708122 0.17935225 -0.045513432
-0.015138296 -0.18031818 0.11121651 -0.06201561 0.25358903 0.12573902 -0.05007968 0.1897656
0.13255808 0.08262539 -0.13462776 0.12715293 -0.1191468 -0.014323485 -0.106396616 -0.2320398
0.022731658 -0.229974 0.3509159 0.12999181 0.12389304 -0.032151442 0.0061535714 -0.12288197
0.0091805635 0.27546772 -0.20275399 0.3643865 0.2274495 -0.3312357 0.041550916 -0.007682163
-0.4445667 0.22414942 -0.17337278 -0.15138747 0.19723377 0.22965547 -0.1023863 0.015783405
0.069766976 -0.07738826 -0.30361933 0.0374577 -0.049956493 0.20802651 0.21255684 0.042554844
-0.25481048 0.09082032 -0.38720098 -0.16225085 -0.42875683 -0.15786876 -0.015520168 0.077603154
0.2425526 -0.14827628 0.09230598 0.013192621 -0.020037133 -0.035697963 0.21050817 0.22935551
0.3403449 -0.1519842 -0.36125472 0.26281816 0.23223305 0.19313446 -0.33589473 0.026264988
0.02791285 0.37704575 0.08411942 0.21272868 -0.16064785 -0.10471359 -0.08281402 0.094606236

bias f4 [256]
00000000: 8a30 11be ba3f 8cbd 9a9f 08bf 3c3e 2f3e
00000010: 85e4 95bc e509 8ebe 099c c3be 2244 bfbe
00000020: 2a61 00bf 57ab 55bc cfab 74be 15d8 8f3d
00000030: 8867 eebe 8e07 53bf 57c5 b6be 6060 4dbe
00000040: 9651 c5be 2a67 36be 9b02 51be 97f3 8bbe
00000050: e6b9 e9be f0c5 fd3d 3fb9 03bf efe9 033d
00000060: e36d 2f3c cffe dbbe 0ded 8fbe 822f 2ebf
00000070: cb5b 063f 4e04 133c efa8 9bbe ee50 a7be
00000080: 75a5 c2be 9ed4 95be b836 86be 3e42 463e
00000090: a07a 8cbe 023e c8be 25bf 31bf 2c73 c0be
000000a0: 714c d6bc 74f5 06bd afed 7bbe c9c9 93be
000000b0: fe11 cabe d0f9 ebbe 24e6 4c3d 6b1f 8abe
000000c0: 8ea1 05bf 87fc e4be 9f52 ddbd 143e 49be
000000d0: ec22 1ebf 809a fdbe 78d7 24be 1f2d 4c3d
000000e0: b4c6 e43e 6145 d7be 6d1d 3dbe e9d0 42be
000000f0: 4e91 163e 78ab b3be 434e cfbe 14ce 4b3e
00000100: 63c3 04bf 5ff0 693d db8f 34bf 982b f6be
00000110: 7b89 343e 7482 99be ecd7 f2be b683 c63e
00000120: 36a4 02bf 3c95 b03e a7b1 90be ab88 b3be
00000130: bdb9 a83d 9a92 b4be 8fe5 d5bb f873 eabd
00000140: e42d f9be 785f 06bf 6b57 ddbe 62e2 0c3d
00000150: ca48 74be c24f 14be da05 2ebf 02b9 2ebe
00000160: 5a71 f4bd b8b1 f7be 2578 45be 7e26 cbbe
00000170: 892b 56be cf5b 09bf 503e d0bd 6610 d1be
00000180: 08e5 a0be 0cd5 f9be 81fa e33d 6299 a6be
00000190: f4bc 513c f12f 6bbe ce50 98be 78c0 2dbe
000001a0: 2665 62be 1c3c 2bbe 9c38 f4be 976b 6cbe
000001b0: 8401 00bf 235b 2ebe 3372 08bf cc54 c5be
000001c0: cbdc 17bf 1c20 c2bd 6753 2ebf 269d 02bf
000001d0: c2bf 793d 0926 a1be 8624 13bf 3d49 6b3e
000001e0: de92 9d3c dbd0 57be cad5 1fbe 8052 533e
000001f0: 8349 19be 77d7 8dbe cf05 96be 17c3 38be
00000200: 45aa 50be c1c9 4abe 10a8 ff3d 7c22 18bf
00000210: c7cd 8dbe 8ba5 f6be c152 84be 9ddd a0be
00000220: 243d 1cbe 8c3a 703b 1bee 43be a4a5 8abe
00000230: bc1b 723e 588b 06bf f194 5bbe ad33 d3bd
00000240: 2fd0 47be b3d4 12bf 6996 443d a8e3 28bf
00000250: 938d 683e d554 a0be d4c8 b7be 370a 30bd
00000260: 2315 01bf 78fc 02bf 1976 14bf caa1 8c3e
00000270: 914b f53d 60e0 b4bd 2587 29bf 86f9 b9be
00000280: ad1a dabe 0ef2 eb3d 936a fdbd 5bb0 8ebe
00000290: faf0 1cbf 21dc 9d3d 1719 a5be b0d1 db3d
000002a0: 053f edbe 362f 08bf 4052 95be 7fce 63be
000002b0: 8670 523d 7031 e4be be2f a0be beba 1dbd
000002c0: b84e c8be 9c1c 99be c6be b7be 95b0 49be
000002d0: f526 ca3a 478a 07bf d8ac 64be 776d a7bc
000002e0: ce6e a3be 3e01 5fbe 7b32 fabe 62ae 0fbe
000002f0: 184f 50be bb13 75be e18e 0fbe 95b9 9dbd
00000300: 2621 05bf 61dd 37bf 92dd 88be f5a2 763d
00000310: ed2c a3be 2abe 11bf c786 84be 45c1 bb39
00000320: a61d 3abe a0c8 b3be 1dc7 2bbe 26f9 e8bc
00000330: 20bd 04be cb2e 57be 1619 c63c 95e1 c4be
00000340: 8ba5 72be 3913 aa3c d99d 9abc aafe 583e
00000350: f908 0f3e d0b9 04bf a073 00be b643 b9bd
00000360: c84b 0bbf d804 f4be 62f0 753e e1ea a1be
00000370: 7e18 fabd 7e2b 94be 90e9 d3be cfd3 ac3e
00000380: e029 bbbd cd5b 06be 25bf 913e b28b 90be
00000390: 537d 4fbc 7bd5 f9bc a4c2 513d 8b82 8fbe
000003a0: 90d0 dfbd e46b 13bf 2a7b dabd 6b3d a5be
000003b0: b8c6 413e 21dd 09bf cc89 c4bd 821a b6be
000003c0: 17ed 98be 585e f33d f401 66be 617b 76be
000003d0: b202 8abe a315 a6be 7f8b 5dbe cd35 76be
000003e0: ccbd c2be 2cc3 583d 38f6 d9be e511 ddbd
000003f0: cd6d 53be fcca c5be e64d 0a3e 0f44 96be
-0.14178672 -0.068480924 -0.5336853 0.17113584 -0.018297443 -0.27741924 -0.38204983 -0.3735667
-0.5014826 -0.013041339 -0.23893665 0.07023636 -0.46563363 -0.824334 -0.35697433 -0.20056295
-0.38538808 -0.17812791 -0.2041115 -0.27334282 -0.45649642 0.12391269 -0.5145454 0.03220552
0.010707351 -0.4296784 -0.28110543 -0.6804124 0.52483815 0.008973194 -0.30402324 -0.32678932
-0.3801686 -0.29263777 -0.26213622 0.19361207 -0.27437305 -0.39109808 -0.6943229 -0.3758787
-0.026159497 -0.032948926 -0.24602388 -0.28864887 -0.39466852 -0.4608903 0.050024167 -0.26977095
-0.5219964 -0.44723913 -0.10806774 -0.19652587 -0.61772037 -0.49531937 -0.1609782 0.04984772
0.44682848 -0.4204512 -0.18468256 -0.19025005 0.14703867 -0.35091758 -0.40489396 0.19902831
-0.51860636 0.057114 -0.70532006 -0.48080134 0.1763057 -0.2998234 -0.4743036 0.38772362
-0.51031816 0.34488857 -0.28260538 -0.35065207 0.08238552 -0.35268098 -0.0065276097 -0.114479005
-0.48667824 -0.52489424 -0.43230757 0.034395583 -0.23855892 -0.1448355 -0.6797768 -0.17062762
-0.119356826 -0.48377776 -0.19284113 -0.39677805 -0.20915045 -0.53655714 -0.10168135 -0.40832824
-0.31424737 -0.48795354 0.11131764 -0.32538897 0.012801398 -0.22967507 -0.2974915 -0.16967952
-0.22108898 -0.16722149 -0.4769944 -0.23087917 -0.5000231 -0.17026953 -0.53299254 -0.38541257
-0.5932128 -0.094787806 -0.6809601 -0.5102104 0.06097389 -0.3147433 -0.57477605 0.22977157
0.01923507 -0.21075766 -0.15608898 0.2063694 -0.14969449 -0.2770345 -0.29301307 -0.18043171
-0.20377453 -0.19803526 0.12483227 -0.5942762 -0.27696058 -0.48173174 -0.25844386 -0.31419078
-0.15257698 0.003665599 -0.19133799 -0.270795 0.23643392 -0.5255637 -0.21443535 -0.10312591
-0.1951301 -0.57355803 0.047995005 -0.65972376 0.22710256 -0.31314722 -0.35895407 -0.04297849
-0.5042288 -0.51166487 -0.579927 0.27467185 0.11977304 -0.08831859 -0.6622184 -0.36323184
-0.42598477 0.11520778 -0.12373843 -0.27868924 -0.613052 0.07708002 -0.32245705 0.10733354
-0.46337143 -0.5319704 -0.29164314 -0.22246741 0.051376842 -0.44568968 -0.31286424 -0.03850817
-0.39122558 -0.2990464 -0.35887736 -0.19696267 0.0015422987 -0.5294537 -0.2233156 -0.02043794
-0.31920475 -0.21777818 -0.4886664 -0.14031366 -0.20342672 -0.23933308 -0.14019348 -0.077014126
-0.52003706 -0.7182217 -0.26731545 0.060214 -0.31870213 -0.5693079 -0.25884077 0.00035811416
-0.18175372 -0.35114002 -0.16775174 -0.028439116 -0.1296277 -0.21013944 0.024181884 -0.38453355
-0.23695962 0.02076112 -0.018874096 0.21190897 0.13968267 -0.5184603 -0.12544107 -0.09046118
-0.5441251 -0.47659945 0.2401748 -0.3162451 -0.12211703 -0.28939432 -0.41389132 0.33755347
-0.091388464 -0.13120957 0.28466144 -0.2823158 -0.012664157 -0.030497303 0.051211014 -0.28029284
-0.10928452 -0.57586503 -0.10668023 -0.3227342 0.18923461 -0.5385304 -0.09596595 -0.355671
-0.29868385 0.11883229 -0.22461683 -0.24070503 -0.2695518 -0.32438383 -0.21635245 -0.24043961
-0.3803543 0.052920505 -0.42570662 -0.10794429 -0.20647354 -0.38631427 0.13506278 -0.293488

weight f4 [256, 100]
00000000: 932b 18be 05c8 943d 2a59 7d3c 20dc 993d
00000010: 2d26 2f3d df9b 823d f153 0abc 8a96 adba
00000020: 8bbb a5be 4237 0dbb 682f b13c 8b09 46bd
00000030: 64db 39be a63f 14be 3868 803d 6709 b2be
00000040: a7cc 683d f5d2 593d 3d36 9abc 899c a4bd
00000050: 5c4f 5d3e 9a96 07be 30b0 853c c50c 51be
00000060: 1228 303b bc90 cabd 672f 053e 08d5 8ebe
00000070: 24f4 33bd 39e8 56be 4f01 9fbe e003 853e
00000080: b292 6e3d d84b e03d 439c cb3c 5f42 c1bd
00000090: 09fb e4bc c8c4 25be 5ea1 95be 7c6b 113e
000000a0: ee91 0f3e 3442 4f3d 64ca 5e3e 6604 663d
000000b0: 82a8 e73d 49b7 9c3d 5024 903d bfad 933b
000000c0: d387 463d 974e 13bd 83ea 823e f987 283e
000000d0: 0c4e 823c aed8 eb3d 9cba 093e 8372 b7bc
000000e0: e43a 29be 87b6 75bd a9c0 5b3d 1d5c d4bd
000000f0: ceb7 93bd 1be3 1fbd d5b9 a6bd 9fae 2dbe
00000100: bcce 82bc b03b 02be bba7 983d c143 debc
00000110: 1573 11be 182d 1f3e 25bb fbbd 5b30 82bc
00000120: 05db b13d 4155 83bd f158 333d adca 583d
00000130: d1b5 0cbd f424 ca3d 377a b43c 6ac2 abbc
00000140: 3f1e fb3d 84fb d9bd 8739 84bd d8c6 fc3a
00000150: 393b 883c 4d49 293d c8d4 0dbe 0937 34bd
00000160: 5963 283c 8289 a63d 864a 35bd 6eaf 9fbd
00000170: 8cf3 0bbe 9a9c 3a3c f7b8 da3d 88fd b63c
00000180: eb05 bf3d e124 93bc f24b 2bbe 3e3f f4bd
00000190: 04f4 ddbc 1be4 903d a50b 4fbe 1fd9 a63d
000001a0: fb04 7f3d 037e 6cbe f93e 7ebd 1ddb 1e3e
000001b0: fa0f 583b e1e9 6b3d 92e2 2a3d 26eb b1bd
000001c0: 21e1 abbc 86f7 3a3e 82f0 b03d f69c a8bd
000001d0: 2027 193b 2516 b53c f01b 13bd 3220 6fbe
000001e0: 97af 1f3e 5044 dabd 4d43 113d 744a 653c
000001f0: f5f4 e3bc 03b4 313d c65d 9dbc 24cb abbd
00000200: d712 b4be 7b78 4dbc 4675 60bd 9a8c 953d
00000210: c3d8 34bd ae4f 673a d0c5 f3bd 6538 283e
00000220: 974f ec3c f145 38bd 8843 f2bb 4282 e63d
00000230: 2988 66bc c2f6 a73d 5c84 a13d f776 233b
00000240: fd74 193e 799b 813d 2687 0dbf 3827 75bc
00000250: 4399 4f3e 5030 5e3d 52a7 f9bd dc6e 3e3d
00000260: 2b7e 1cbe 6427 95bd f5a6 0fbe d815 00be
00000270: 741e 0dbe 3e50 ef3d dc43 4d3d 77b1 24be
00000280: 019b f83b 80d4 d73d 6676 2ebe b929 bcbb
00000290: be88 77bd 30dd 643e 1987 053c 5d10 8cbc
000002a0: 762c d7bd 75fe a53d 4006 55be 8a7e 5b3e
000002b0: 5720 70be 1f4c 453d d9da e53d dd11 cabb
000002c0: 2976 90bc d8dc 3e3b d619 1c3d 3f03 edbd
000002d0: 2302 8c3e d4ac 0b3e cbc4 e5bd a4f8 573e
000002e0: 264c 713e cd05 a33d 4b30 8cbd 277f 003d
000002f0: 4102 053d 944b 843e 4b6a ce3c be2d 5fbe
00000300: 19f8 6bbe c477 0abe ae00 f03c 1b59 c63e
00000310: 6240 693e b8fb 2f3e b2f9 55bc 9186 9ebd
00000320: 4750 c53d f51b b9bc bd0e ae3d c456 8a3e
00000330: 0444 c13d b314 24be 50a0 223c 5923 453d
00000340: ca57 26be cafd 013e 33ac 71be 5683 2a3e
00000350: fd97 0f3e 3aed c33d bf4c 273c 2772 1bbd
00000360: d615 bebb ec78 6f3d 5161 a4be f0fb be3d
00000370: 33ce 9ebc 891b f13d ee22 983d 546b ca3d
00000380: 18d7 9a3d bfb6 9cbb dd90 83be 51b4 56be
00000390: 1a8f a83c 62a7 b3bd 0217 acbd ed40 2a3d
000003a0: 30b7 bfbc 57b8 06be 13d1 933e 95f8 5b3d
000003b0: 3428 e3bc a787 223d 6da2 dfbc 6332 8b3c
000003c0: b79e 7c3e 1b8f 49be 8c08 98bc 0391 18bd
000003d0: 2a58 cd3d 5004 f6bc 154e 83be 08bd 143e
000003e0: 25aa 493e eede ab3e 59fe 853d 5a6b 463e
000003f0: 0b06 9d3d de2a 4bbe 87a6 f6bd eca1 c1bd
-0.14860372 0.07264713 0.015463153 0.07512689 0.042761017 0.06377386 -0.008442865 -0.0013243717
-0.32369646 -0.0021547829 0.02162905 -0.048348945 -0.18150097 -0.14477405 0.06269878 -0.34772798
0.056835797 0.0531797 -0.018824691 -0.08037669 0.21612304 -0.13241044 0.016319364 -0.20415027
0.0026879353 -0.09890887 0.13006364 -0.27896905 -0.043934003 -0.20987023 -0.31055686 0.2597952
0.05824537 0.10951966 0.024854785 -0.094364874 -0.027951734 -0.16188347 -0.29224676 0.14201158
0.14020512 0.050600246 0.21756893 0.05615654 0.11311437 0.07652146 0.07038176 0.004506796
0.048469376 -0.03596362 0.25569543 0.1645812 0.015906356 0.11515938 0.13450092 -0.02239347
-0.16526371 -0.059988525 0.053650532 -0.10369132 -0.07212792 -0.039034944 -0.081409134 -0.16961144
-0.01596772 -0.12718081 0.07453867 -0.027131917 -0.14204057 0.15544546 -0.12291554 -0.015892198
0.08684353 -0.06412745 0.043785993 0.05292766 -0.03435308 0.098703295 0.022030933 -0.020966727
0.12261628 -0.10643676 -0.06456285 0.0019285334 0.016629802 0.04132967 -0.13850701 -0.043997798
0.010277593 0.08131696 -0.044260524 -0.077971324 -0.13667125 0.011389876 0.106798105 0.02233769
0.09327301 -0.017961921 -0.1672819 -0.11926125 -0.027093895 0.07074758 -0.20219286 0.08146881
0.06226061 -0.23094945 -0.062071774 0.15513273 0.0032968507 0.05759609 0.04171998 -0.08687429
-0.020981373 0.18258485 0.08639623 -0.08233063 0.0023369268 0.022105286 -0.035915315 -0.23352125
0.15594326 -0.10657561 0.035464574 0.013994802 -0.027826766 0.043384563 -0.019209754 -0.083883554
-0.35170624 -0.012540932 -0.05479934 0.07302208 -0.044152033 0.0008823824 -0.11902964 0.16427763
0.028846545 -0.044988576 -0.0073933043 0.112553135 -0.014070549 0.08201362 0.07886574 0.0024942735
0.14986034 0.06328482 -0.55284345 -0.014962964 0.20273308 0.054245293 -0.12190117 0.046492442
-0.15282504 -0.07282904 -0.14028533 -0.12508333 -0.13781148 0.11685227 0.050113544 -0.16083322
0.0075868373 0.10538578 -0.17037353 -0.0057422784 -0.060433142 0.22350001 0.008149886 -0.017097646
-0.10506527 0.081051745 -0.20803165 0.2143499 -0.23449837 0.048168298 0.112233825 -0.0061666803
-0.017634468 0.0029123332 0.038110577 -0.11572885 0.2734538 0.13640147 -0.11219176 0.21090943
0.23564205 0.07960091 -0.06845149 0.031371262 0.032472853 0.25838912 0.025197169 -0.21794793
-0.2304386 -0.1352225 0.0292972 0.38739857 0.22778466 0.17185867 -0.01306002 -0.0774051
0.09634452 -0.022596339 0.08498905 0.27019322 0.09436801 -0.16023521 0.009925917 0.048129413
-0.16244426 0.12694469 -0.23600845 0.16651663 0.14022823 0.09566732 0.010211169 -0.03795066
-0.005800943 0.05846493 -0.32105497 0.09325397 -0.019385433 0.1177283 0.07428537 0.098837525
0.07560557 -0.004782527 -0.2569646 -0.20967223 0.020576049 -0.0877216 -0.08402826 0.041565824
-0.02340278 -0.13156258 0.28870448 0.053703863 -0.027729131 0.03968015 -0.02729913 0.0169918
0.2466992 -0.19683497 -0.018558763 -0.03724767 0.100265816 -0.030031353 -0.2564551 0.14525235
0.19693811 0.3356852 0.065426536 0.19376889 0.07667168 -0.19840571 -0.12043481 -0.09454712

weight f4 [256, 256]
00000000: 0b4d 9dbd c714 c73d 6bbc 7b3d 0be1 203e
00000010: 7f17 bebb c98c 533e 9879 1ebe c234 23bd
00000020: f634 983d c7b8 4dbe de02 a4be 7fc2 45be
00000030: 7791 9cbe e14d 81be 8eea 263d 23b5 203c
00000040: 9489 56be 4292 c0bd 254a 5b3d 709f b2bd
00000050: ec05 ffbd f0be 87bd 379f 91bd 85ab 6dbe
00000060: 9c7c 68bc 1668 fb3c 3076 34be 220e 3fbc
00000070: 7835 fabd f1f6 613e bad7 12bc 2ff2 b8bd
00000080: f98e 02be 5b80 fb3d c0b6 1fbe c0fb b83e
00000090: fed3 8dbe 9b11 98be 7453 c2bc 1399 e63d
000000a0: ee73 243c d35e 1ebe 0a62 3ebe b517 0f3d
000000b0: ea2b e7be 69ee 133e e702 75bd fd38 89be
000000c0: 055f 1cbe 9abd f5bd d6b8 00be d444 703d
000000d0: 6b35 fc3c 6a43 11bc 041b 9bbd 02d9 5ebd
000000e0: ca0e 823e 9280 c8bd 1845 993e 18ae 7a3e
000000f0: a5e8 f03d 782c b33d 8ee6 3cbd e9c7 d83d
00000100: 6a8f aabe fdb8 403d 490d 44bd cf94 6cbe
00000110: ffef 04be 703b 033e 615b 223e be95 303e
00000120: 5642 48bc ca28 9c3c d5b5 9cbe f7f5 80be
00000130: c13c 8d3d 7c44 413d bb4d 5abc 6729 be3e
00000140: 4669 b6be 6e40 e3bd 9271 6e3e 16a3 db3a
00000150: a50f 1b3d a48b d7bd 0abd 6e3e ab70 47bc
00000160: 4a70 a1bd 4cbf e73c 634a 27bd 5ccf 85be
00000170: 7da0 cabd 6647 d83d 3b36 3ebc 1425 f23d
00000180: 2aa5 533e d5e0 10be bca3 e9bd eadd eabd
00000190: e3fe 26be 4ad3 9ebd f06b f23e 02fd 5e3d
000001a0: 2e37 853d 7e28 803e 1fc5 bb3b 411f fd3d
000001b0: fcfd 393e 5dd5 c0bc eea6 9f3d 77b6 59be
000001c0: 0dd5 f7bb c04b aabd 4f4c ad3d 514d 60be
000001d0: 6055 123e 0910 6fbe b992 69be b074 283d
000001e0: 3342 c0bd e69d 65be d8b6 7abe 3ac4 6dbd
000001f0: 57e0 583c 91a2 aebe 3cca 1a3e 0d13 bf3c
00000200: 298f eb3d 9658 3d3d 129c d03c 11e1 ecbe
00000210: d8c8 53be 9bbd 9dbd 229d 9a3e 6d59 2e3d
00000220: 0f37 0b3e 0b2b b13d 5e39 9bbe 8d3d d33d
00000230: 81f5 c3bc 0934 613d 3a7a 1ebe 200a d63d
00000240: b96a 343e 4122 80bd 73fb 8a3d 2b24 cdbd
00000250: 7dc4 733e d2b5 a0bc 0517 b53d 3fa9 373d
00000260: c41f 6fbe bad3 16be 33d0 59bd 8b5b d53d
00000270: 5320 d1bd e223 a63e c6ae c0be 770e 6ebe
00000280: 215f 343b c251 373e cd23 ab3d 0166 13be
00000290: 114c a0be 15e4 b23c 02c2 543e 74f0 2e3d
000002a0: bb01 28be ad0b 783e b06f 9abd ee04 a7bc
000002b0: c5b4 073d e11a ddbd 0205 c53d 5925 20bd
000002c0: 2f96 803d aecb 0b3e f67d 273e 33f0 e9be
000002d0: 592d 58be c167 8fbe b751 2cbd 09ab 98be
000002e0: 959c 02bc c610 963d d553 5c3d 2945 883d
000002f0: fefe 763e c604 12bc 6d06 ce3d f4cf 033e
00000300: b198 98be f030 95be e839 483d 75cb a4bc
00000310: 5576 02bd f0d5 c4bd 8771 99be b55e 813d
00000320: 1f54 933c 870d 74be d1d4 e33d f5dd 423e
00000330: bec9 403e bd7c c93d 306c 98bd 815f 953d
00000340: 59b8 a83b 1b37 133e 3ee3 dabc e116 6ebe
00000350: b6b5 1ebd b9f2 383e 2bfa 0cbd 980e 5bbe
00000360: bcb6 333e 4777 c1bd eea1 033e f598 b33d
00000370: b063 2b3d b444 4abe 120c 02bd 787b 113d
00000380: a668 4c3c 66b9 e93d 3c13 383c 871b a53d
00000390: 0f96 3f3e eb12 2abd 765b 1f3e 982a b1bd
000003a0: 9160 64bb 7076 7fbe 5076 7b3e fc3a dbbc
000003b0: c9ca 56be a4f2 45be 5d4f bfbb bd43 c9bd
000003c0: 788e 1dbe 313f 703d 21ba e23d 78f5 5abe
000003d0: da54 013e 814e 203e 7344 493d fd77 853d
000003e0: 66fb 04be 3776 13bd 4e25 fbbd 8c59 bbbd
000003f0: bb6f 8e3d d402 7fbd 4f34 bd3d 7749 10be
-0.076807104 0.0972076 0.061458986 0.15710847 -0.005801141 0.20659174 -0.15476072 -0.039845236
0.074319765 -0.20090018 -0.32033437 -0.19312476 -0.3057973 -0.2525473 0.040751033 0.009808811
-0.2095092 -0.094028965 0.053537507 -0.087218165 -0.124523014 -0.06628215 -0.07110446 -0.23209961
-0.014189865 0.03068928 -0.1762321 -0.011661084 -0.122172296 0.22066857 -0.008962566 -0.09030568
-0.12749852 0.12280341 -0.15597057 0.3612957 -0.277008 -0.29700932 -0.023721434 0.11259665
0.010037405 -0.1546586 -0.18592086 0.03493472 -0.4515069 0.14446415 -0.05981722 -0.2680129
-0.15270622 -0.11999054 -0.1257051 0.05865939 0.03078719 -0.00886617 -0.07573512 -0.054406174
0.25401908 -0.09790148 0.29935527 0.24480474 0.117631234 0.08748716 -0.04611831 0.10585005
-0.3331254 0.04705142 -0.047864232 -0.23103641 -0.12982176 0.12815642 0.15855171 0.17244622
-0.012222847 0.019062418 -0.30607477 -0.25187656 0.068963535 0.047184452 -0.013324196 0.37140962
-0.35627192 -0.11096273 0.23285511 0.0016756977 0.037856717 -0.10524681 0.233143 -0.012172858
-0.078827456 0.02828946 -0.040842425 -0.26134765 -0.09893892 0.10560493 -0.011609609 0.11823478
0.20668474 -0.14148267 -0.11408183 -0.11468108 -0.16308169 -0.07755144 0.47347975 0.054440506
0.06504665 0.25030893 0.005730286 0.12359477 0.18163294 -0.02353924 0.07795511 -0.21261011
-0.0075632394 -0.083152294 0.0846182 -0.21904494 0.1429038 -0.2334596 -0.22809877 0.041126907
-0.093876265 -0.22423515 -0.24483812 -0.058048464 0.013237081 -0.34108403 0.15116209 0.023324514
0.11501915 0.04622706 0.025465045 -0.46265462 -0.20682085 -0.0770218 0.30198008 0.04256575
0.13595222 0.08650788 -0.30317205 0.10314474 -0.023920776 0.054981265 -0.15476313 0.1045115
0.17618836 -0.062565334 0.067862414 -0.10016664 0.23805423 -0.019617949 0.08842281 0.04483914
-0.23351961 -0.14729205 -0.05317707 0.10417851 -0.102112435 0.3244925 -0.37633342 -0.23247705
0.0027522522 0.17902282 0.08356438 -0.1439438 -0.31308034 0.021837274 0.20777133 0.042709783
-0.1640691 0.24223204 -0.07540834 -0.020388093 0.03313138 -0.10796142 0.09620096 -0.039098118
0.06278645 0.13651916 0.16356644 -0.4569107 -0.21111049 -0.28008845 -0.042070117 -0.2981799
-0.007971902 0.07327418 0.053790886 0.06653816 0.2412071 -0.008912271 0.10059819 0.12872297
-0.29803994 -0.291389 0.04888335 -0.020116547 -0.03185113 -0.09611118 -0.29969427 0.06316892
0.017984448 -0.23833285 0.11124576 0.19029982 0.18826959 0.09838245 -0.0744251 0.072936065
0.005148929 0.1437649 -0.026719686 -0.23250915 -0.03874751 0.18061341 -0.034418266 -0.21392286
0.17550176 -0.094465785 0.1285474 0.087694086 0.041843116 -0.1975277 -0.031749792 0.03551814
0.012476122 0.11412315 0.011235055 0.08061891 0.18709587 -0.041521948 0.15562233 -0.08650702
-0.0034847597 -0.24947524 0.24556851 -0.026761524 -0.20975794 -0.19330841 -0.0058383183 -0.09827373
-0.15386379 0.058654014 0.110706575 -0.21382701 0.12630025 0.15654947 0.049137544 0.065170266
-0.12986526 -0.03600141 -0.12262975 -0.09147939 0.06954905 -0.062258556 0.09238493 -0.14090525

bias f4 [256]
00000000: f68a 853e 8127 99bd 9e21 0b3e e1bf cb3e
00000010: 41e8 aa3e ec33 ab3e d261 ad3e d495 983e
00000020: 990e 9d3d 2b2c 093e f951 883e f847 4c3e
00000030: f27a 31bd cbec f53e 83d2 a33c 3cb3 963e
00000040: b05f 1c3e 0c6c 463e ff3d 903e 1ff6 043e
00000050: bd79 933e 12dd fdbd f101 cc3e f297 2cbd
00000060: ca37 d2bc 923a 763e bcdb 4cbc 0fd4 9a3e
00000070: 1ea0 bb3e 0dac 983e 35a7 e03e f1a6 c23e
00000080: a7a5 943e 0ad6 b93e c973 7b3e 449b 033e
00000090: c9da 963e 73f2 263d 437a e13d 1861 fe3e
000000a0: c719 bb3c ce8d 0e3e e31e 973c 7371 603e
000000b0: 6d51 d33e 3709 f73c fb98 863c ca67 d93e
000000c0: 84c8 f13b f0a1 2e3d f18f ad3e a906 d83e
000000d0: 7879 d93d 955a a83e 7a06 e83e c4de ae3e
000000e0: e31c b33e c082 d83e 01b0 263e 6e8b c33e
000000f0: 61c2 bb3c 4439 2e3e 27e3 dc3e c5b9 2c3e
00000100: 2740 8b3e 52ea 57be a68c 2bbd 401e 0f3e
00000110: 757f 66bd cd18 1f3e f9d6 d53c 8e99 153e
00000120: 6123 533d 6b65 2f3e 142d a2bb 524d 303e
00000130: a2c6 b93c 0a9e 853b 7592 3abd 7f2f d5bc
00000140: e5cf 823e 814f 013e 19c0 2e3e 1df1 493e
00000150: 510f e03d 4e11 183b 393d 573e 3fac ce3d
00000160: 214f 903e 86f0 2d3e 660c 9b3d 8c1c b63e
00000170: 40c1 773e 131b a7bd 8e54 403e 605b aa3d
00000180: 8b8e c73e 3fcb be3e 1d3e 2a3e c926 53bd
00000190: 67b6 d2bd fc88 a13e e6bd e93e ddaa 733e
000001a0: 49ca c2bd 9b76 153e 4ab4 a23c 4bc1 8a3e
000001b0: 1fa6 7e3e 3cf3 133b 9860 e6bc 016e 313e
000001c0: b746 cf3e 6920 8f3e e71f 65bd e2c1 1e3d
000001d0: fa46 b03e c45b 103e 49e5 da3e 90a9 073e
000001e0: d4a8 96bc af0b 573e ebb4 57bd f114 b93e
000001f0: b9c6 c83e 189b a23e e119 9fbb 0715 883e
00000200: f331 82bd 684b 533e 4285 ffbd 9381 81bd
00000210: 1a60 d83e 61b0 ba3e 823b 003e c29c 3b3e
00000220: 7764 8a3e 2140 b53e 2cae 0e3d 452f 963e
00000230: 37c0 6c3e 685f aa3c bef6 d03c d9f7 6f3e
00000240: 9db3 093f 5904 453e ccbe 363c a9c2 75bd
00000250: 2577 6b3e a969 0bbd 08be 903e e9c9 ce3e
00000260: 6063 783e a770 94bd 55ca 703e 7dd2 6f3e
00000270: c31b 3f3e 1d50 393e 7937 543d 123f b93c
00000280: 841c 933e 1544 38bd 280c 573d f6d9 c3bd
00000290: 810d 643e 0665 41bd a0f5 aeba 391a e23e
000002a0: 71d6 983e 4b4c b23e 3eee b23e b2ca ec3d
000002b0: 392f ab3e 3106 fb3b 4abf 203e c6d9 753e
000002c0: 6c3c 953e 0a57 cf3c 0f78 41bc 4a5a 67bd
000002d0: 2167 21bd d749 913e 6634 623e 7a28 05bd
000002e0: 2b09 ee3e 3c9b d63d 54c5 1b3e 0876 7f3e
000002f0: 5229 c43e fed5 383e 0735 953e a611 543e
00000300: 1697 6cbc 7ee7 bc3e eb15 14be afbd 233e
00000310: 4c84 aa3e fe4f 153e d442 26bd 7c0c 0abd
00000320: 7067 d9bb f913 503d c976 cbbd 5c2c 173d
00000330: bf48 8f3e c1a3 07bd 9e38 873e 8992 b43e
00000340: 8b20 b7bd 2d6a 853e f707 9c3e 3b90 173e
00000350: 3a58 dd3e 6cce 673e 93b5 7c3e a505 a33e
00000360: 9d33 42bc a5fa 913e 5bf9 783e c040 183e
00000370: 2f65 0abc 000f 1e3e 94ef fa3d 11e7 323e
00000380: 19dc 693e f4a6 313c 381d ea3d cbe1 863e
00000390: 534a 3bbd 5265 853e 6120 a03e eb45 3a3e
000003a0: c9f9 1a3c 8d38 ac3e 4fa0 75bd 58ad 60bd
000003b0: deeb 9c3e 3d80 553e 26c5 23bd 67aa 5ebd
000003c0: 0bda 983c 002f 203f 137c 3a3d 60bf 953e
000003d0: 6ddb 8e3e 7879 5a3e 576c 873d d899 113f
000003e0: 6adf 553e 898f 1b3e 717d 123e 8ae8 f43d
000003f0: 59ba 3a3e 81b9 b03b 4a3c 64bd 290c bc3e
0.2608258 -0.07478238 0.13587043 0.3979483 0.3338032 0.3343805 0.33863693 0.2980181
0.076688 0.13395755 0.2662504 0.19949329 -0.04333014 0.4803222 0.01999784 0.2943362
0.15270877 0.19377154 0.281723 0.12984513 0.28803816 -0.123956814 0.3984523 -0.042137094
-0.025661368 0.2404578 -0.012503561 0.30239913 0.36645597 0.29818764 0.4387757 0.3801799
0.29032633 0.3629611 0.24555887 0.12852198 0.29463795 0.04075856 0.11009648 0.49683452
0.02283944 0.13921282 0.018447345 0.21918277 0.4127306 0.030155761 0.016430369 0.42461997
0.0073786397 0.042634904 0.3389888 0.4219258 0.106188715 0.3288161 0.4531744 0.34154332
0.34982976 0.42287254 0.16278078 0.38192314 0.022919836 0.17014033 0.43142053 0.1686774
0.27197382 -0.2108548 -0.04188218 0.13976383 -0.056273896 0.15536804 0.026103484 0.14609358
0.05154741 0.17128532 -0.0049492214 0.17216995 0.022677723 0.0040776776 -0.04554983 -0.026023624
0.25549236 0.12627985 0.17065467 0.19720884 0.109404214 0.0023203674 0.21019448 0.10091447
0.2818537 0.16986284 0.07570724 0.35568655 0.24194813 -0.08159461 0.18782255 0.0831821
0.3897594 0.3726444 0.16625257 -0.05155066 -0.10288697 0.31549823 0.45652694 0.23795648
-0.09511239 0.14596026 0.01986136 0.27100596 0.24868058 0.00225754 -0.028122231 0.1732712
0.4048364 0.27954414 -0.055938628 0.03875912 0.3442915 0.14097506 0.42753056 0.13248277
-0.01839105 0.2100055 -0.05266277 0.3614879 0.39214113 0.31758952 -0.00485538 0.26578543
-0.06357183 0.20634234 -0.12476589 -0.063235424 0.4226082 0.3646269 0.125227 0.18321517
0.27029774 0.3540049 0.034834072 0.2933294 0.23120199 0.020797446 0.02550828 0.2343439
0.53789693 0.1923994 0.011153888 -0.060000096 0.22994669 -0.034036312 0.28269982 0.4038842
0.24256659 -0.07248049 0.23514684 0.23420139 0.18662934 0.18096967 0.051810715 0.022613082
0.28732693 -0.044986803 0.052501827 -0.09563057 0.22270776 -0.047215484 -0.0013348348 0.4416063
0.29851106 0.34823832 0.3494739 0.115620986 0.33434466 0.00766065 0.15697971 0.24008855
0.2914766 0.025310058 -0.011808409 -0.05648259 -0.039404992 0.28376648 0.22090301 -0.032509305
0.4649137 0.10478827 0.15211993 0.24947369 0.38312775 0.18050382 0.2914202 0.20709857
-0.014440319 0.36895365 -0.14461486 0.15990327 0.3330406 0.14581296 -0.040591076 -0.033703312
-0.006634645 0.050800297 -0.09934766 0.03690754 0.27985188 -0.033115152 0.26410383 0.35268047
-0.08941754 0.26057568 0.30474827 0.14801113 0.43231374 0.22637337 0.2467864 0.31840244
-0.011853126 0.2851154 0.24313872 0.1486845 -0.008446976 0.1543541 0.12252727 0.17470957
0.22837867 0.010843027 0.11431354 0.2634414 -0.045725178 0.26053864 0.31274703 0.18190734
0.0094589675 0.33636895 -0.059967335 -0.054852813 0.30648702 0.208497 -0.039982937 -0.054361727
0.018658658 0.62571716 0.045528483 0.2924757 0.27901784 0.21335399 0.06612461 0.5687537
0.20886007 0.15191473 0.14305665 0.11958416 0.18235148 0.0053932075 -0.05572156 0.36728027

weight f4 [256, 256]
00000000: dca3 a0bc 5db2 b2bd 7747 9abe 2ad9 4d3d
00000010: 7fee 993b fd4d b43d fcdf 8abd b6f2 f6bd
00000020: 4b0f 95bd b1b1 eabc 9fef 73bb caae 14be
00000030: 9714 15be 1ef0 3cbd ac96 39bd 68f6 a9bd
00000040: a9ee 0dbd 216f a43d 03dd 99bc 762c 823c
00000050: 37ea e43b a856 babd 0aaa cfbd 044c d43c
00000060: 58f5 7dbd 76e4 afbc f369 8ebd e633 15bb
00000070: 7eb1 0ebd 23eb 713d 7177 f0bb 2d05 0cbd
00000080: 4738 83bc 8fb7 bb3b eda2 18bd 6324 c13d
00000090: 7728 bdbd f8e3 b23d d71a 853d 71fd 033e
000000a0: 306d 523b 400e 9dbd e515 f0bd 89fa 3cbd
000000b0: 55fe 8fbe 587e 30bd 911a 4b3d bc89 0fbe
000000c0: 71bb babd 8022 9d3d de29 8bbd 6a4c 8b3d
000000d0: bb6b a9ba a7c7 d9bd 15ad 043e d53c 713b
000000e0: 7996 ad3d 9852 08bd 0841 463d 7823 573d
000000f0: 9d4f ed3d 3e58 b33d 56b2 c1bd ba53 9cbc
00000100: 65ec 29be 7c17 15bd 3761 02be 82b7 32be
00000110: 2b95 da3d 15b9 063e 2219 cd3c 51fd b03d
00000120: 9f64 a8bd 1883 4c3c fc07 30be 63e5 cbbc
00000130: 73c7 39bd fd56 cfbc c45f 2d3d 2324 283d
00000140: f32b 87be 2654 db3c 65a5 b63d 9dfa b33d
00000150: 288c 5d3c 55ac c0bd 7381 763d c377 b4bd
00000160: ed0e 87bc 9d78 99bd 3959 82bd a0d0 5cbd
00000170: 8d5c b6bd a5f6 43be 1e2b 32bc b4f3 aa3d
00000180: 9a32 f23c f430 fdbd 4848 09be 8f2e 89bc
00000190: b14b 103d 24db 73bd c990 e83d 2039 323c
000001a0: 02bd f2bd 5576 643d f0a1 efbd 5c92 e03b
000001b0: a0b3 a1bd c1c6 e2bd 6841 143e dfa2 3ebe
000001c0: 675e 0abe a196 f9bc 279f 913d d5b3 bc3c
000001d0: ff20 23bc 6eb3 20bd c324 ecbd 25b5 c8bd
000001e0: 5dac 32bb 6d9a 3a3d 6ba7 0ebd 0792 213d
000001f0: 72b1 85bd 2865 22be 295d 4a3c f121 56bd
00000200: 97f6 823d b3cb 66bd ec8b a23d da66 a9be
00000210: 9f83 763c e631 1cbe f99f 3dbd 4e5f f53c
00000220: 0110 203d d8cc b63c 79d9 5bbe 4fb2 843d
00000230: f221 0ebc 9c2e 83bd 5e7b b5bd 0043 b53d
00000240: d6d7 513e 8487 513c a3fd cc3c 9570 d7bd
00000250: 46bf b63c 4034 873e a0af 8cba 5aa7 05be
00000260: cb15 12be 6d37 fdbd 6e33 edbc 8774 703d
00000270: cea8 cabd 92f0 353c 43f2 c1bd f92f 46bc
00000280: 0f71 e2bd 94f2 e73a b0e6 80bd b7f4 babc
00000290: f2ae 00bd c752 b3bd 965d 743d b30b 343e
000002a0: 7cef 8e3b d434 2b3d 6659 4d3c e88b 443d
000002b0: bed7 bc3b 514b 0bbe 842c 343d c726 0b3e
000002c0: 3a22 09bd 1ee3 193e 3c95 083e 4538 80be
000002d0: 08ee 95bd c6d3 1abe eaf2 dc3d f5bb 28bd
000002e0: 073c f93c f6e4 d53d 9df9 13be 88a1 a93d
000002f0: 8313 553d ea01 0fbe d41d be3d 068c ec3d
00000300: 0867 ffbd 0b14 5a3d 6ae3 1cbc 3279 063e
00000310: 4474 21be 91bb bdbc edd4 e3bd 76c0 6bbd
00000320: dee6 c8bc e76c 7fbc 8c5d 0e3d d6ab b3ba
00000330: 88d5 113e b620 5e3d 3bd5 1fbd d51e b93c
00000340: 661f 083d ddb9 313e e4a7 bebd b2f8 653c
00000350: 868c fcbd adc6 983d e04a d0bd 26db cf3d
00000360: 842a af3d 530c cabd 05c8 223d 569c 093d
00000370: db50 4d3d 968b 5a3d 866a 493d 76f3 0fbd
00000380: 63c3 a63d 23d1 4ebd 0423 673c 2eef bbbc
00000390: 960a 143e 2d75 723c bc01 833d d614 39bd
000003a0: 0848 80bc 4368 81bd 1545 363b 307a 9fbd
000003b0: a947 fabd 515e 20be 359b bd3c e046 7ebd
000003c0: 51b3 9abd 1421 573d caeb 77bd 8720 afbd
000003d0: ad30 6fbc bfe0 1a3c 7aeb 2ebd 1cd3 91bd
000003e0: 3ef9 32bd d3f7 b83d 59d8 08be e7c3 20be
000003f0: c6fb bdbd 8fed fe3c c50d 8d3d c414 b33d
-0.019609384 -0.08725426 -0.30132648 0.050255932 0.0046976204 0.088039376 -0.06781003 -0.12058012
-0.072783075 -0.028649183 -0.0037221683 -0.14519802 -0.14558636 -0.04612743 -0.045309708 -0.082989514
-0.034651432 0.08029009 -0.018782144 0.015890341 0.0069859284 -0.090985596 -0.10139854 0.025915153
-0.062001556 -0.021471243 -0.06953802 -0.002276653 -0.03483724 0.059062134 -0.0073384573 -0.034184624
-0.016018046 0.005728669 -0.037264753 0.09430768 -0.09236234 0.08734888 0.0649926 0.12889649
0.0032108538 -0.076687336 -0.11722926 -0.046137366 -0.28123727 -0.04308924 0.049585883 -0.14017385
-0.09117783 0.07672596 -0.06795095 0.06801684 -0.0012925783 -0.10633784 0.1295665 0.003680994
0.08475966 -0.033281893 0.048401862 0.05252406 0.11587451 0.08757065 -0.09457843 -0.019082893
-0.16594084 -0.03639935 -0.12732397 -0.17452815 0.10672983 0.1315654 0.025036398 0.08642066
-0.08222317 0.012482427 -0.17190546 -0.024889654 -0.045356225 -0.025310034 0.042327657 0.041050088
-0.26400718 0.026773524 0.08918265 0.08788035 0.013522185 -0.0940787 0.060182046 -0.08811905
-0.01648661 -0.07493708 -0.06364674 -0.053909898 -0.089043714 -0.19137056 -0.010874538 0.08347264
0.029565144 -0.12362853 -0.1340648 -0.016745834 0.035228435 -0.05953516 0.113557406 0.0108778775
-0.11852457 0.055776913 -0.11700809 0.006853385 -0.07895589 -0.110730655 0.14478076 -0.18616818
-0.13512574 -0.030467333 0.07110434 0.02303497 -0.009956597 -0.039233617 -0.11530449 -0.098001756
-0.002726338 0.04555743 -0.03482763 0.039445903 -0.06527986 -0.158589 0.012351313 -0.052278463
0.063946895 -0.056346606 0.07936844 -0.33086282 0.015046029 -0.1525341 -0.04629514 0.029952671
0.039077763 0.022314474 -0.21469678 0.06479322 -0.008675085 -0.064053744 -0.08861421 0.0885067
0.20492491 0.012788657 0.025023287 -0.1051952 0.022308003 0.2640705 -0.0010733493 -0.13052121
-0.14266126 -0.12364087 -0.028955188 0.05870488 -0.09895478 0.01110472 -0.09470036 -0.0120963985
-0.110567205 0.0017696195 -0.06294 -0.022821767 -0.03141684 -0.08756023 0.059659563 0.17582588
0.004362045 0.041798428 0.012533521 0.047984987 0.005763023 -0.1360295 0.043987766 0.13589011
-0.033479907 0.15028045 0.13338178 -0.2504293 -0.073207915 -0.15119848 0.1078852 -0.041194875
0.030424131 0.104440615 -0.14450689 0.08282763 0.05202056 -0.13965574 0.09283033 0.11550145
-0.124708235 0.05324177 -0.009575704 0.1313217 -0.15767008 -0.023160728 -0.11124597 -0.057556592
-0.024524149 -0.015589929 0.034757182 -0.0013707827 0.14241612 0.054230414 -0.03902171 0.02259771
0.03323307 0.17356057 -0.09309366 0.014036344 -0.1233149 0.074597694 -0.10170531 0.10149221
0.08553031 -0.09865632 0.039741535 0.03359636 0.050125938 0.053355776 0.049173854 -0.03514429
0.08142736 -0.050492417 0.0141074695 -0.022941198 0.14457163 0.014798445 0.06396815 -0.045185886
-0.015659347 -0.063187145 0.0027812172 -0.07786977 -0.12220699 -0.15660979 0.023145298 -0.06207931
-0.07553733 0.05252178 -0.0605276 -0.08551126 -0.014599008 0.009452998 -0.042705037 -0.07120344
-0.043694727 0.09031644 -0.1336378 -0.15699731 -0.092765376 0.031119136 0.06887392 0.08744195

weight f4 [47, 256]
00000000: c485 41be 788a 1f3c b4b3 96bd 0af3 1ebe
00000010: eb96 1f3e 8b9e 093d 13da a83d c31e 3cbe
00000020: d049 f0bc 2409 48bd e708 2b3d cc56 a13c
00000030: 4523 f43c ea04 9e3d a128 1f3e 8480 2abd
00000040: 53d9 ad3c 18ab c83d 2807 4fbe 2da3 b53d
00000050: 6cc3 843c aea4 a43d 53db b7bd 1e42 1b3d
00000060: be40 203b ce18 51bc bd00 afbc 95d9 c6bd
00000070: 898a 03be 4a0b 033e 487e 67bd 26d9 7dbe
00000080: 0568 0b3e b21d 9ebe 010d 8ebe e9e3 8d3d
00000090: af59 38bd 22e4 6abe dfa9 c6bd 9e6a 563e
000000a0: 184b 963d baba cebd 046d a43c d230 72be
000000b0: 2e14 023e 61c7 0f3c 6094 86bb e22c e13d
000000c0: 0bb1 633d 0379 663c b61a 30be a9a4 20bd
000000d0: da42 55be d23a e63c 7171 a1bd 8c4c a6be
000000e0: a959 753e f181 3cbd a912 fcbd 8def a6be
000000f0: 81e9 b6bc 66fa e0bd 9022 1bbe 2fff 1e3e
00000100: 62d4 8b3e b5be cf3c 796f 0d3e d528 ed3d
00000110: ee73 353e 0360 0fbd 72e1 a23c e01f a53d
00000120: 4a55 38be 4c22 3ebd dc82 203d 0db6 4e3e
00000130: fe52 6e3d de05 023d 59e8 c13c 6d31 13bd
00000140: 2949 fcba dd04 143d 0d67 0cbe b210 1dbe
00000150: 1633 a4be c063 ffbc 0061 44be fe9a 47bd
00000160: b496 24bd ec57 303e a3cc 893d 0c17 afbe
00000170: f92f 5c3d 56d3 883d e769 59be 1198 0f3e
00000180: f234 a23d 11aa 693d 38f0 5e3d e30c 18bd
00000190: 03f7 8cbd c9a8 8dbe a54b 023e 52cf 373e
000001a0: 5219 85be 5fae cbbd 7f8d a7bc b4a9 383e
000001b0: 9344 20bd 50b4 f6bd c38f 943e 4445 adbd
000001c0: bd38 0dbe a366 8f3d 78f2 c03b 380f a1bd
000001d0: 2c96 573e 5cfa 023e 8def 84be ff78 f5bd
000001e0: 6b45 e83c d66f 3ebe 3d56 573d 2490 243e
000001f0: 4416 0bbe 88a1 e3bc eb58 6dbd 9ec9 863d
00000200: 28e0 25be c682 023e 05ef cc3d 11ac e1bd
00000210: 73f6 cabd 102b 84be 6f47 ac3c b030 a53d
00000220: 1533 343e c2a3 0f3e b52e 30bd a686 c83c
00000230: 0809 80be 45e0 dcbb 306d a43d b56b f93d
00000240: 3438 acbe 5dd6 ca3d 41b9 ff3b bdc2 5c3d
00000250: c3a2 a1bd 7cc1 2d3d 55b8 4a3d c836 d7be
00000260: 4123 5f3e 4492 57bd c58b 313e 3fa5 f53d
00000270: 374a 54bc 2e7d 7d3c dcbb 7bbc 0a12 5d3d
00000280: de63 493b 7564 423c fa55 123d 00f0 243e
00000290: fab9 e23d 0926 84bd 9e5f 5dbc 32ec f1bd
000002a0: caa6 ba3b 72de fbbd f2d1 aa3d a076 f03c
000002b0: d58e 3f3d b2a5 593c 3761 9ebd 1eba 7d3e
000002c0: b328 84bd ef62 013e 4d27 b4bc 096c 283d
000002d0: f491 f7bd f81d 343e 4e64 8c3d 2ee8 efba
000002e0: 4018 203e efb3 79be e145 f3bd 890d 073d
000002f0: ff8b 18be 8cd1 bd3b 4630 64be aa46 913e
00000300: bc07 15bc a4ce 43bd 7a64 e93d 850f b53d
00000310: aa0f a63d 301b 8bbe 494b 62bc 1419 243d
00000320: f2c7 cbbc a0c6 ea3c a7e2 3abc cb85 2d3d
00000330: 05f0 ff3c b756 ac3c 192f 35be c967 353e
00000340: 0339 543d c089 6b3d 9d72 fbbd bd42 22be
00000350: 1a58 0e3d 35b8 b4bd d2fb d5bc 95aa b7bb
00000360: 63fa 4f3d 0755 bbbd 58ac 4d3e 70e9 5d3e
00000370: edcc a93d cd3b 37bd 46a1 c1bd c69e ba3d
00000380: 00c0 c03d d81e 13bd 0668 8abd 5901 b23d
00000390: 9800 2fbd b951 2b3e 54e1 0e3e 21d9 283d
000003a0: 4d0b 403c bf4d 17be 9540 9c3d 5b50 343d
000003b0: d3a1 0fbe 17b6 74bd 6476 a13d e9a0 1b3d
000003c0: c12b 61be 17a7 e03d 309d 1ebe 13f9 23bc
000003d0: e202 2abd 7306 fa3d bee4 833d 6306 a9be
000003e0: 7258 913e 3726 863d 58cc 393e ec88 c8bc
000003f0: 2464 743e a5a8 9dbc 0d16 30bd c2d4 893d
-0.18898684 0.009737603 -0.073584944 -0.155224 0.15584914 0.033598464 0.08244719 -0.1837111
-0.029332072 -0.048836842 0.041756537 0.019694708 0.029801974 0.07715781 0.15542842 -0.04162647
0.021221792 0.097982585 -0.20217574 0.08869014 0.016206466 0.08039223 -0.0897738 0.03790485
0.0024452652 -0.012762262 -0.021362657 -0.09709469 -0.12845816 0.12797275 -0.056516916 -0.24789867
0.13613899 -0.3088203 -0.27744296 0.06928236 -0.045007404 -0.22938588 -0.09700369 0.20939109
0.07338542 -0.10094209 0.020071514 -0.23651436 0.1270301 0.008775563 -0.004107043 0.10994889
0.055588763 0.014066937 -0.1719769 -0.039219532 -0.20826283 0.02810422 -0.07882965 -0.32480276
0.23959984 -0.04602236 -0.12308247 -0.32604638 -0.02232814 -0.1098526 -0.15149903 0.15527032
0.27310473 0.02535949 0.13812055 0.11580054 0.17720005 -0.035003673 0.019882891 0.0806272
-0.18001285 -0.046419427 0.039187297 0.20186634 0.058184616 0.031743877 0.023670362 -0.035935808
-0.0019247878 0.03613745 -0.13711186 -0.153384 -0.32070225 -0.031175494 -0.19177628 -0.048731796
-0.040182784 0.1722104 0.067284845 -0.3419727 0.053756688 0.06680934 -0.21231805 0.14022852
0.07920255 0.057046954 0.05442831 -0.037121665 -0.06883051 -0.27667835 0.12724169 0.1795018
-0.2599588 -0.09945368 -0.020453213 0.18033487 -0.039127897 -0.12046111 0.2901593 -0.08460477
-0.13791175 0.07001998 0.0058882795 -0.07864231 0.2105338 0.12790817 -0.25964013 -0.11985969
0.028353414 -0.1859735 0.052572478 0.1607061 -0.13582712 -0.027786985 -0.057946127 0.06581424
-0.1619879 0.12745199 0.10006527 -0.11019147 -0.09910288 -0.25814104 0.021030156 0.08065927
0.17597611 0.14027312 -0.043013293 0.024478268 -0.2500689 -0.006740602 0.08028638 0.121787466
-0.3363663 0.09904168 0.0078040664 0.053896654 -0.078923725 0.04242085 0.0494922 -0.42033982
0.21790792 -0.052629724 0.17338474 0.11994409 -0.012957147 0.01547174 -0.015364613 0.05397228
0.0030729691 0.011864771 0.035726525 0.16107178 0.110706285 -0.06452567 -0.013511566 -0.11812629
0.0056961523 -0.122982875 0.08340825 0.02935344 0.046767075 0.013284134 -0.07733386 0.2477803
-0.06453075 0.12635396 -0.021991396 0.041118655 -0.12088385 0.17589557 0.06855069 -0.0018303448
0.1563425 -0.24385045 -0.11878563 0.032971893 -0.14897154 0.005792802 -0.2228404 0.28374225
-0.009096082 -0.04780449 0.113961175 0.08840851 0.081084564 -0.2716918 -0.013811895 0.04006298
-0.024875615 0.028659165 -0.011406577 0.042363923 0.03124238 0.021037443 -0.17693748 0.17715372
0.051812183 0.057504416 -0.1227772 -0.15845771 0.03475199 -0.08824197 -0.026121054 -0.0056050518
0.050775897 -0.09147077 0.20085275 0.2167108 0.082910396 -0.044734765 -0.094545886 0.09112315
0.09411621 -0.035918087 -0.06758122 0.08691663 -0.042725176 0.16730393 0.13953143 0.041222695
0.011721444 -0.14775752 0.076295055 0.044021945 -0.14026575 -0.059743967 0.07883909 0.037995253
-0.21989347 0.1096937 -0.1548965 -0.010008114 -0.041506656 0.12208261 0.064401135 -0.33012685
0.2838779 0.06550258 0.18144357 -0.024479352 0.23866326 -0.019245455 -0.04298978 0.067300335

bias f4 [47]
00000000: b7bf 9b3d 6cf1 0f3e 1437 53bd 1c37 b73d
00000010: 879c 53bd bce7 c5bd f46b 193e d2cf bd3d
00000020: d15f 033f bb65 593c 668d d1bd 9c33 0d3d
00000030: 62f4 a9be f1bd 24be eaad a8be 3a13 183e
00000040: 5757 a7bd e18d c83d b75f e6bd c5fa adbd
00000050: 357b dc3d ab0a 29be 550c 16be 32b4 92be
00000060: 2cf5 54be c785 1cbd 2050 82be bdac 10be
00000070: ab03 bbbe 2404 b83d cb97 c23d c16a 50be
00000080: 764e 8fbe cbb7 d7bd 0145 4bbe cdbd 69be
00000090: 70fb 85bd eaa4 78bd daa8 08be 51f7 f3bd
000000a0: ba82 11be a2e7 00be 2db8 0abe 75af 4abd
000000b0: f3a6 b5bd ed3b 07be aaa4 0fbe
0.07604926 0.14056939 -0.0515662 0.08946058 -0.051662948 -0.096633404 0.14982587 0.09268154
0.5131808 0.013268883 -0.10232048 0.034473047 -0.33194262 -0.16088082 -0.32945186 0.14851084
-0.08170956 0.09792686 -0.11248725 -0.08495096 0.107656874 -0.16507976 -0.14653142 -0.28653103
-0.2079665 -0.038213518 -0.25451756 -0.14128394 -0.36526236 0.08985165 0.095016085 -0.20353223
-0.27989548 -0.105331026 -0.19850542 -0.2282631 -0.065420985 -0.06070415 -0.13345662 -0.11912406
-0.14210024 -0.12588361 -0.1354682 -0.049483735 -0.08869734 -0.13206454 -0.14027658
