model_repository/graph_embeddings/1/model.pt (torch, 855664 bytes, 9 tensors)

weight f4 [256, 100]
0	0xbcea70c5	-0.028618226
1	0x3e89248c	0.26785696
2	0x3da955c4	0.082683116
3	0xbe246afb	-0.16056435
4	0xbd504810	-0.050849974
5	0xbdcf6f06	-0.10128598
6	0x3da6b3a1	0.0813973
7	0x3ead560c	0.3385471
8	0xbde1db3a	-0.11028142
9	0x3e000b3f	0.1250429
10	0x3dbf8e46	0.093533084
11	0xbe5c7687	-0.2152959
12	0xbd7e2f6c	-0.062056944
13	0x3d6b8612	0.057500906
14	0xbce465cf	-0.027880577
15	0xbe230fee	-0.15924045
16	0x3de459ee	0.11149965
17	0x3d3808f0	0.0449304
18	0xbe3a262a	-0.18178621
19	0xbdd5588e	-0.10417281
20	0xbeaccceb	-0.3375009
21	0xbe26eac6	-0.16300496
22	0xbda01fc6	-0.0781856
23	0x3dbf33f3	0.093360804
24	0xbe118903	-0.14212422
25	0xbe22c094	-0.15893775
26	0xbd522381	-0.05130339
27	0xbc6a2f85	-0.014293556
28	0x3def9c84	0.11699775
29	0xbee43786	-0.4457361
30	0xbdee2213	-0.11627593
31	0xbe8e6ad9	-0.27815893
32	0xbe81e9b6	-0.2537362
33	0xbe1ee67e	-0.15517613
34	0xbdfbc281	-0.12292958
35	0x3ce43a2d	0.027859772
36	0x3e27254f	0.16322826
37	0x3d212c9b	0.03934918
38	0xbe8ae8f8	-0.27130866
39	0x3e0804d0	0.13283086
40	0xbdf6bd8f	-0.12047874
41	0x3b1d3487	0.0023987608
42	0xbe44c0ff	-0.19214247
43	0xbe5fab61	-0.2184272
44	0xbb22ee40	-0.0024861246
45	0x3d3e1cae	0.04641407
46	0x3d82009b	0.06347772
47	0xbdd6b278	-0.10483259
48	0x3e407a67	0.18796693
49	0xbcb50e30	-0.022101492
50	0x3d28e35b	0.041232448
51	0xbdbd54b5	-0.09244672
52	0xbe4a98d5	-0.19784863
53	0xbd6a1a97	-0.057154264
54	0x3d81a32e	0.06329952
55	0xbecdf85e	-0.40228552
56	0xbdd43975	-0.103625216
57	0x3e215aa8	0.15757239
58	0x3c3c19f4	0.011480797
59	0xbd2d4ff4	-0.042312577
60	0x3db67694	0.08909336
61	0xbe378e83	-0.17925458
62	0x3dac0938	0.08400196
63	0xbd845397	-0.06461256
64	0xbcbc7916	-0.023006957
65	0x3e0b869f	0.13625573
66	0xbdc753a3	-0.09732749
67	0x3d5cb9e9	0.053888235
68	0x3cf3696a	0.029713351
69	0x3ebc7519	0.36808088
70	0xbe92167a	-0.28532773
71	0x3e3e1e3e	0.18566224
72	0xbdf8fa28	-0.121570885
73	0xbe03847b	-0.12843506
74	0x3e3cd89f	0.1844201
75	0xbd9d52cd	-0.076818086
76	0xbd24ed93	-0.04026563
77	0xbdc2018f	-0.094729535
78	0xbc403b16	-0.011732837
79	0xbe1af7e4	-0.15133625
80	0xbdb97a9f	-0.09056591
81	0xbd4edd27	-0.050503876
82	0xbd2cc576	-0.0421805
83	0x3e34ee0f	0.17668937
84	0x3d94e3a4	0.072699815
85	0xbda108f0	-0.07863033
86	0xbeafb646	-0.3431875
87	0xbd860457	-0.065437965
88	0x3dbff676	0.093731806
89	0x3ea7ffe6	0.32812423
90	0x3e88b86c	0.26703203
91	0xbd43c91d	-0.04779922
92	0xbea1933f	-0.31557652
93	0xbe18ba3e	-0.14914796
94	0x3d513ff7	0.051086392
95	0x3e074437	0.13209616
96	0xbe2eca7c	-0.17069429
97	0x3dde5348	0.108557284
98	0xbe385517	-0.18001209
99	0xbe2fdbac	-0.17173642
100	0xbd0a79f1	-0.0338077
101	0x3d89362b	0.06699785
102	0xbeae28ad	-0.34015408
103	0xbe2258fc	-0.15854257
104	0x3e80fb38	0.25191665
105	0x3e425316	0.18977007
106	0x3dcf5267	0.10123139
107	0x3e280dc7	0.16411506
108	0xbdf2cd99	-0.11855621
109	0x3ed82225	0.4221355
110	0xbe47978b	-0.19491403
111	0xbda67d2f	-0.081293456
112	0x3cad968b	0.021189949
113	0xbc8777cc	-0.016536616
114	0xbee0aed8	-0.43883395
115	0xbcfeac28	-0.03108795
116	0xbd79db92	-0.061000414
117	0x3e3df48d	0.1855032
118	0xbbec5988	-0.0072128214
119	0xbe08efb9	-0.13372697
120	0xbdaca4ae	-0.08429848
121	0xbd4e5697	-0.050375547
122	0x3e155044	0.145814
123	0xbe2a19da	-0.16611424
124	0xbceabf6c	-0.02865573
125	0xbda6b758	-0.08140439
126	0xbdbe9605	-0.09305958
127	0x3d4ac1da	0.049501278
128	0x3ea9c08d	0.33154717
129	0x3dd1e2b4	0.10248318
130	0xbef7f9a1	-0.4843264
131	0x3d990210	0.074710965
132	0xbbe60c26	-0.007020491
133	0x3d89604b	0.067078196
134	0x3e398ad6	0.18119368
135	0xbdd57cc9	-0.104241915
136	0xbe12d274	-0.14338094
137	0xbdeebea8	-0.116574585
138	0x3e38ddb7	0.18053328
139	0x3e9477e3	0.28997716
140	0x3e7ddc91	0.2479117
141	0xbe28d8ba	-0.16488925
142	0x3e290083	0.16504101
143	0x3d737eb2	0.059446998
144	0x3e11c38e	0.14234754
145	0x3e51d818	0.2049259
146	0x3e3ed228	0.18634856
147	0x3d1c5cc8	0.03817442
148	0x3db4bbb5	0.08824865
149	0x3d53bec1	0.05169559
150	0xbe25fa98	-0.16208875
151	0x3d8e8c5a	0.06960364
152	0x3d24dd8b	0.040250342
153	0xbd044a31	-0.032297317
154	0xbe131df2	-0.14366892
155	0x3e235798	0.15951383
156	0xbd25bbe5	-0.040462393
157	0xbe093c50	-0.13401914
158	0x3ca4868e	0.020083692
159	0x3c1155d1	0.008870558
160	0xbe10fc57	-0.1415876
161	0xbe2248c8	-0.15848076
162	0xbd2a7854	-0.04161866
163	0xbd838977	-0.06422704
164	0xb99df7b1	-0.00030129918
165	0xbdd89248	-0.10574776
166	0x3d85c772	0.06532182
167	0xbd1fce3a	-0.039015032
168	0xbe1e1c1b	-0.15440409
169	0xbe1e11a0	-0.15436411
170	0x3d1a3151	0.037644688
171	0xbe9ff984	-0.31245053
172	0x3dbf1389	0.09329898
173	0xbd2e7d89	-0.04260019
174	0xb95242c0	-0.00020052027
175	0xbe8550a4	-0.26038086
176	0xbdb655eb	-0.08903106
177	0xbbda05a6	-0.0066535054
178	0xbde38ffe	-0.11111449
179	0xbd3d1234	-0.046159938
180	0xbd6d9832	-0.058006473
181	0x3e8f12bb	0.27943978
182	0xbbf799a5	-0.0075561577
183	0x3c324c42	0.010882439
184	0x3cf8fc25	0.03039367
185	0xbc957d16	-0.018248122
186	0x3db4717f	0.0881071
187	0x3e0677cb	0.13131635
188	0xbe387c56	-0.1801618
189	0x3d2b123e	0.041765444
190	0xbe1fdae0	-0.15610838
191	0x3d621103	0.055192005
192	0xbd0e2385	-0.034701843
193	0xbe1e05c7	-0.15431891
194	0xbe2b475d	-0.16726442
195	0x3d9b8bba	0.0759501
196	0xbd259e2a	-0.04043404
197	0xbb92d3ae	-0.0044808006
198	0xbd2b01e8	-0.041749865
199	0xbce2cf0a	-0.027686615
200	0x3e41e174	0.1893366
201	0xbe104ca8	-0.14091742
202	0x3d874dfa	0.0660667
203	0xbdf2c260	-0.1185348
204	0x3ec05f20	0.37572575
205	0xbe224ea1	-0.15850307
206	0x3e08b15c	0.13348907
207	0x3db80925	0.08986119
208	0xbe139abd	-0.14414497
209	0x3d888dae	0.06667648
210	0x3d846e4b	0.06466349
211	0xbe405a72	-0.18784502
212	0xbc210c8a	-0.00982965
213	0xbe1b28a8	-0.15152228
214	0xbe800305	-0.25002304
215	0x3e16076a	0.14651266
216	0xbc95e8cb	-0.01829948
217	0xbe0a442b	-0.13502567
218	0xbe17713e	-0.14789292
219	0xbe8b931e	-0.2726068
220	0x3e671276	0.22565636
221	0xbd8af4f4	-0.06785002
222	0xbdee168f	-0.116253965
223	0xbe76c8f8	-0.24100101
224	0xbd4796e6	-0.048727892
225	0x3ecc96ee	0.399589
226	0x3e852d37	0.2601106
227	0xbd522c99	-0.051312063
228	0xbeb0e0e6	-0.34546584
229	0xbd658ec3	-0.05604435
230	0x3d6a1527	0.05714908
231	0x3cbf5d9a	0.023360062
232	0xbe97089c	-0.29498756
233	0x3e81e5cc	0.25370634
234	0xbe3479c6	-0.17624578
235	0xbdcb6a31	-0.09932364
236	0x3dbceb73	0.09224596
237	0xbe6be2c8	-0.23035729
238	0x3e55a780	0.20864677
239	0xbdab842a	-0.08374818
240	0x3d5a2884	0.053261295
241	0x3ddd4aea	0.10805304
242	0xbdf9c153	-0.12195077
243	0xbdc89138	-0.09793323
244	0x3e65e122	0.22449163
245	0xbcf6c6dd	-0.030124122
246	0xbec7c152	-0.3901468
247	0xbdaeecaf	-0.085412376
248	0xbe4e19da	-0.20127049
249	0x3ebbc954	0.3667704
250	0x3ae7b9c6	0.0017679266
251	0x3d9f69c0	0.07783842
252	0x3d9e0310	0.07715428
253	0xbd858639	-0.065197416
254	0xbe820954	-0.25397742
255	0xbe34400a	-0.17602554

bias f4 [256]
0	0xbeea6e77	-0.45787403
1	0xbd5fa828	-0.054603726
2	0xbcaa3086	-0.02077509
3	0xbddbe6f6	-0.10737412
4	0x3d4b0e48	0.049574167
5	0x3e3cdbbc	0.18443197
6	0x3e563aca	0.20920864
7	0x3ca6ff82	0.020385507
8	0x3e0b2609	0.13588728
9	0xbe7f1957	-0.2491201
10	0xbec853d1	-0.39126447
11	0x3dd18d84	0.1023207
12	0x3dff45a4	0.12464455
13	0xbe8b647a	-0.27225095
14	0xbebea46f	-0.37234828
15	0xbddf7484	-0.109108955
16	0xbedd02a7	-0.43166086
17	0xbde97098	-0.11398429
18	0x3d3171ff	0.043321606
19	0xbbc09fc9	-0.005878423
20	0xbed00013	-0.40625057
21	0xbd39c62a	-0.045355
22	0x3ea92005	0.3303224
23	0x3d98ecbd	0.07467029
24	0xbde2f2f2	-0.110814944
25	0xbf07b21b	-0.5300614
26	0xbe0eec8b	-0.13957421
27	0xbe18030d	-0.14844914
28	0xbe0797f5	-0.13241561
29	0xbe6149e5	-0.22000845
30	0xbdea1a71	-0.114308245
31	0xbe957740	-0.29192543
32	0xbdbf0578	-0.09327215
33	0xbea84ef5	-0.3287274
34	0xbeedf2fa	-0.4647444
35	0xbf16ded7	-0.58933777
36	0xbecd838b	-0.40139422
37	0xbda0e7ca	-0.0785671
38	0xbe0635d0	-0.13106465
39	0xbe4471f5	-0.19184096
40	0xbe7ee5ae	-0.24892303
41	0x3e3ce1df	0.18445538
42	0xbed2a447	-0.4114096
43	0x3d0bf407	0.03416827
44	0x3df1ed95	0.11812893
45	0xbe1fa5fc	-0.15590662
46	0xbebe82a7	-0.37209055
47	0xbeb14ed0	-0.34630442
48	0xbe307412	-0.17231777
49	0xbe16f3e8	-0.1474148
50	0x3c85aef2	0.016318772
51	0x3e46f751	0.19430281
52	0xbe157b6b	-0.14597861
53	0x3daee5f4	0.08539954
54	0xbe8444f1	-0.25833848
55	0xbe058738	-0.13039863
56	0xbebf488a	-0.3736003
57	0xbf10078f	-0.56261533
58	0x3ea55b52	0.32296234
59	0xbe354f3c	-0.17706007
60	0xbea41728	-0.32048917
61	0xbe772bb0	-0.24137759
62	0xbeb4dcd6	-0.35324734
63	0xbedef6c8	-0.43547654
64	0x3caa7d26	0.020811629
65	0xbde90ec2	-0.11379768
66	0xbe8acd6e	-0.27109855
67	0xbe782c79	-0.24235715
68	0xbeed94ab	-0.46402487
69	0x3e86b071	0.2630649
70	0xbd874194	-0.06604305
71	0xbeb16a57	-0.34651443
72	0x3d6c5229	0.05769554
73	0xbe802ba5	-0.25033298
74	0xbea97dbf	-0.3310375
75	0xbe91c1f4	-0.28468287
76	0xbe134522	-0.14381841
77	0xbe86709b	-0.26257786
78	0x3d03702c	0.032089397
79	0xbeef4238	-0.46730208
80	0xbea19678	-0.3156011
81	0xbd004d80	-0.03132391
82	0xbe7e9389	-0.24860968
83	0xbe8174f1	-0.25284532
84	0xbe9ed412	-0.31021172
85	0xbe037174	-0.12836248
86	0xbf3a5ff0	-0.7280264
87	0xbdde8051	-0.10864318
88	0x3d350194	0.04419096
89	0xbdd43993	-0.10362544
90	0x3d7ee8ee	0.062233858
91	0x3c6b301b	0.014354731
92	0xbeb10b53	-0.34578952
93	0x3bb83b07	0.005622271
94	0x3e32ebe6	0.174728
95	0xbdca11b8	-0.09866661
96	0xbeb8bbc9	-0.3608077
97	0xbea72d11	-0.3265157
98	0x3e1e3584	0.15450102
99	0x3d4ebe13	0.050474238
100	0xbd4ddc2a	-0.050258793
101	0xbe1e0f06	-0.15435418
102	0x3e9dad92	0.30796486
103	0xbed1f1d6	-0.4100482
104	0xbee3ea73	-0.44514808
105	0xbe7421c8	-0.23841012
106	0xbde64686	-0.1124392
107	0xbe8a4ea5	-0.27013126
108	0xbe1f57df	-0.15560864
109	0xbe856a5a	-0.26057702
110	0xbddf5295	-0.10904423
111	0xbe1873e9	-0.14887966
112	0xbdb5296b	-0.088457905
113	0x3d840fab	0.06448301
114	0xbe8148f1	-0.25250962
115	0xbeb8fe69	-0.361316
116	0xbe35c861	-0.1775222
117	0xbe46edee	-0.194267
118	0xbea815d2	-0.32829148
119	0xbe4724ed	-0.1944768
120	0x3d8568c4	0.06514123
121	0x3d3028a7	0.04300752
122	0x3db54511	0.08851064
123	0xbd8799df	-0.066211455
124	0xbf318bca	-0.69353926
125	0xbf282f8b	-0.65697545
126	0xbea75a2f	-0.32685992
127	0x3cf405a1	0.02978784
128	0xbdebf9c7	-0.115222506
129	0xbe03cd1c	-0.12871212
130	0xbbe52885	-0.0069933557
131	0xbe1c6afc	-0.15275186
132	0xbed0f7ca	-0.40814048
133	0xbe995f2d	-0.29955426
134	0xbe299d3c	-0.16563886
135	0x3ea50128	0.32227445
136	0x3e46a931	0.19400479
137	0x3c60e82c	0.013727229
138	0x3e9c24df	0.3049688
139	0xbdaafa56	-0.08348529
140	0xbe632ca9	-0.22185005
141	0xbec1467f	-0.37749097
142	0xbde0031b	-0.10938092
143	0xbe9485ec	-0.29008424
144	0x3dc6a78b	0.09699925
145	0xbf0a0169	-0.539084
146	0xbe9a7fb6	-0.3017556
147	0xbc624d99	-0.013812446
148	0xbe32562c	-0.17415684
149	0xbde513dc	-0.111854285
150	0xbed1d929	-0.40985993
151	0xbe413414	-0.18867522
152	0x3e1854d6	0.14876112
153	0xbed06227	-0.40699884
154	0xbe704166	-0.23462448
155	0xbd9f249d	-0.07770655
156	0xbcc1790d	-0.023617292
157	0xbf06eeaa	-0.5270792
158	0x3cbbe554	0.0229365
159	0xbf0528f8	-0.5201564
160	0xbe89b9cf	-0.26899573
161	0xbebe7a85	-0.3720285
162	0xbec01272	-0.37514073
163	0x3dd27702	0.10276605
164	0x3dcf1f03	0.10113337
165	0xbdefa870	-0.11702049
166	0xbecdd4c8	-0.40201402
167	0xbea2f5ef	-0.31828257
168	0xbd04ab06	-0.032389663
169	0x3d8e3704	0.06944087
170	0xbec5a837	-0.386049
171	0xbee47f71	-0.4462848
172	0xbe8a1751	-0.26970914
173	0xbeb8e7ff	-0.361145
174	0x3d7c7011	0.061630312
175	0xbd759ebd	-0.059965838
176	0xbe19f423	-0.15034537
177	0x3c9e00f1	0.019287558
178	0xbe9b8858	-0.3037746
179	0xbea38d29	-0.31943634
180	0xbdb06f3b	-0.086149655
181	0xbe9af7f2	-0.30267292
182	0xbd693ca7	-0.05694261
183	0x3efc4185	0.49268737
184	0xbda7fef8	-0.08202928
185	0xbe6b96fe	-0.23006818
186	0xbeb9e045	-0.36303917
187	0xbe90e201	-0.28297427
188	0xbeac9af0	-0.33711958
189	0xbe76cb76	-0.24101052
190	0xbe3d9868	-0.1851517
191	0xbe558ae2	-0.20853761
192	0xbdac3f2d	-0.08410487
193	0x3d048441	0.03235269
194	0xbdefd642	-0.11710788
195	0xbe09a0c2	-0.1344023
196	0xbccf9cd3	-0.025343334
197	0xbe19f6a9	-0.150355
198	0xbf1d6796	-0.61486185
199	0xbdcd3d7a	-0.10021491
200	0x3a0fac9f	0.00054807396
201	0xbeb523be	-0.35378832
202	0x3e7e05f5	0.2480696
203	0x3e15ad40	0.14616871
204	0xbde55b01	-0.11198998
205	0x3de6ad31	0.112635024
206	0xbc6a2ab1	-0.014292405
207	0xbf2127af	-0.6295118
208	0xbea9461a	-0.33061296
209	0xbcfd59b7	-0.030926568
210	0x3cb7be11	0.022429498
211	0xbe70bbca	-0.23509136
212	0xbea66281	-0.32497028
213	0xbe9a2a24	-0.30110276
214	0xbea122b9	-0.31471804
215	0xbd71ab66	-0.05900135
216	0xbe0e5d17	-0.13902698
217	0xbec13ca1	-0.3774157
218	0xbd5f3010	-0.054489195
219	0xbe30b3a3	-0.17256026
220	0xbf04b2ec	-0.51835513
221	0xbec81bdf	-0.39083764
222	0x3e127c46	0.14305219
223	0xbd9b3bfb	-0.075798
224	0xbd2d2487	-0.042271163
225	0xbd9637d2	-0.07334866
226	0x3e5105cc	0.20412368
227	0x3e2ce7f5	0.1688536
228	0xbee857b2	-0.45379406
229	0xbdc7679c	-0.09736559
230	0xbe29ae11	-0.16570307
231	0xbe6441d9	-0.22290744
232	0xbe8a29d6	-0.26985043
233	0x3e11693e	0.14200303
234	0x3dd0c6d1	0.10194171
235	0xbedf705e	-0.43640417
236	0xbdc15076	-0.09439175
237	0xbe33acc8	-0.1754638
238	0xbe0bb50d	-0.13643284
239	0xbe1cc17d	-0.15308185
240	0xbd88b2cd	-0.066747285
241	0x3e0bfe91	0.13671328
242	0xbe214a53	-0.15751009
243	0xbed038df	-0.4066839
244	0xbd9ca46f	-0.07648551
245	0xbd1ec1e9	-0.038759146
246	0xbe457bd3	-0.19285516
247	0x3d510068	0.051025778
248	0xbf070116	-0.5273603
249	0xbe2c3abe	-0.16819283
250	0x3d1c097e	0.03809499
251	0xbe931641	-0.28727916
252	0xbe8319eb	-0.2560571
253	0xbed7252c	-0.42020547
254	0xba054c71	-0.0005084938
255	0xbe7e5b5a	-0.24839535

weight f4 [256, 100]
0	0x3e239ba9	0.15977348
1	0x3c3cda0a	0.011526594
2	0x3d743e29	0.059629593
3	0xbd5e3cab	-0.054257076
4	0x3d16ddb1	0.036832515
5	0xbd5fd73f	-0.054648634
6	0x3d8091b6	0.06277792
7	0x3de65e6d	0.11248479
8	0x3ad20e66	0.001602602
9	0x3de9a3b1	0.11408175
10	0x3e1ddc06	0.15415964
11	0xbe07d246	-0.13263807
12	0x3d28a5f2	0.041173883
13	0xbdf32733	-0.11872711
14	0xbe53681c	-0.20645183
15	0xbe09e0d0	-0.13464665
16	0x3db468fb	0.08809086
17	0xbe243b35	-0.1603821
18	0xbd22d9a0	-0.039758325
19	0x3d8ed58e	0.06974326
20	0xbe4cd0ca	-0.20001522
21	0xbd29950a	-0.0414019
22	0xbd93f2b5	-0.07224027
23	0x3e011324	0.12604958
24	0x3ca0cd71	0.019629212
25	0xbd7bd0d5	-0.061478455
26	0x3dff34bf	0.124612324
27	0xbddc0269	-0.10742647
28	0xbca3fe90	-0.020018846
29	0xbe8a2aa5	-0.2698566
30	0xbe73c2db	-0.238048
31	0xbe4fd6f2	-0.20296839
32	0xbded34e6	-0.11582355
33	0xbe0e91c0	-0.13922787
34	0xbe019dc6	-0.12657842
35	0x3e100653	0.14064912
36	0x3d0cd455	0.034382183
37	0x3c874043	0.016510135
38	0xbe3674dc	-0.17818016
39	0x3ca5ab90	0.020223409
40	0xbd8689e0	-0.06569266
41	0x3e0279bc	0.1274175
42	0xbe8e7412	-0.2782293
43	0xbea7cbe1	-0.32772735
44	0x3d567aef	0.052363332
45	0x3e0358c8	0.12826836
46	0xbdbf4b36	-0.09340517
47	0xbdf54a5f	-0.11977076
48	0x3dc698d6	0.0969712
49	0xbdba32ce	-0.090917215
50	0x3d35d3c5	0.044391412
51	0x3bca3dfb	0.0061719394
52	0xbd8e9719	-0.06962413
53	0x3df79881	0.12089635
54	0x3e02fff9	0.12792958
55	0xbe886a44	-0.26643574
56	0xbe0be3c3	-0.13661103
57	0x3de62427	0.11237364
58	0xbcfdc6d8	-0.030978605
59	0x3d5d34f0	0.054005563
60	0x3dd42374	0.10358325
61	0xbcca97a9	-0.02473052
62	0xbceab321	-0.028649868
63	0x3da36c63	0.079796575
64	0x3de76ec9	0.113004275
65	0xbcc6961d	-0.024241501
66	0xbd1c0ac5	-0.038096208
67	0x3e233828	0.1593939
68	0x3d60bea5	0.054869313
69	0x3eb375c7	0.35050794
70	0xbcdf136f	-0.027230946
71	0x3dca8f8c	0.09890661
72	0xbe00fe5f	-0.12597035
73	0xbc50ae6e	-0.0127369
74	0xbd6cd3c8	-0.057819158
75	0xbd556d96	-0.052106462
76	0xbe03a91e	-0.12857482
77	0xbdf67def	-0.12035739
78	0x3e423ab9	0.18967713
79	0x3e2efbf8	0.17088306
80	0xbe74359d	-0.23848577
81	0x3c99fc96	0.0187972
82	0xbe3b4f1e	-0.182919
83	0x3dd40290	0.10352051
84	0x3e1fe101	0.15613176
85	0xbdd33b17	-0.10314005
86	0xbe18b2f2	-0.14912012
87	0xbe4d8e8e	-0.20073912
88	0x3ddd32e5	0.10800723
89	0x3e34a8c6	0.17642507
90	0x3d70432e	0.058657818
91	0xbd389f28	-0.04507366
92	0xbea1c1b6	-0.31593102
93	0xbe54fcaf	-0.20799516
94	0x3e0f85fd	0.14015956
95	0x3db4f3a9	0.08835537
96	0xbdbbfbf7	-0.09178918
97	0x3d925088	0.07144266
98	0xbdf74978	-0.1207456
99	0xbe8e0c19	-0.27743605
100	0xbd3d1d23	-0.046170365
101	0x3d16d43c	0.036823496
102	0xbe45069e	-0.19240806
103	0xbe2d25cb	-0.16908948
104	0x3dc4d437	0.09610789
105	0x3d527e60	0.05139005
106	0xbb11385c	-0.0022158837
107	0xbd61537f	-0.05501127
108	0xbdd5ed25	-0.10445622
109	0x3e5c6e24	0.2152639
110	0xbde3f5e2	-0.11130883
111	0x3d54d049	0.05195645
112	0x3c98eac0	0.018666625
113	0xbe04e120	-0.12976503
114	0xbe9524ff	-0.29129788
115	0xbd180e40	-0.037122965
116	0xbde622c5	-0.112371005
117	0x3e57c5e3	0.21071582
118	0x3ac6d8fc	0.0015170868
119	0xbd52c1eb	-0.051454466
120	0xbd51a410	-0.051181853
121	0x3dc041fa	0.09387584
122	0x3e9cdf7e	0.3063926
123	0xbe3b691b	-0.18301813
124	0x3ce8edc8	0.028433695
125	0xbd028c9b	-0.031872373
126	0xbda584d5	-0.08081976
127	0xbe266596	-0.1624969
128	0x3e7f16a8	0.24910986
129	0x3e007948	0.12546265
130	0xbe719844	-0.23593241
131	0x3dabbc31	0.08385504
132	0x3ce35e31	0.027754875
133	0xbb648c2e	-0.0034873593
134	0x3e383c18	0.17991674
135	0xbdc5eeec	-0.09664711
136	0x3cf5116c	0.029915534
137	0x3d1f6c40	0.038921595
138	0x3de8307a	0.11337371
139	0x3ea61178	0.32435203
140	0x3e3900c9	0.18066706
141	0xbdf9ba22	-0.12193705
142	0x3e571c6d	0.21006937
143	0x3d60ed4b	0.0549138
144	0x3ccb07f5	0.024784068
145	0xbcec012a	-0.028809149
146	0x3d6e3331	0.05815429
147	0x3cd989a7	0.026554896
148	0x3e4b605d	0.19860978
149	0x3d4aa07d	0.04946946
150	0xbe49c9e0	-0.19705915
151	0xbdad188d	-0.08451948
152	0x3d8f0e24	0.06985119
153	0xbe037173	-0.12836246
154	0xbd445f90	-0.047942698
155	0xbd49bab2	-0.049250312
156	0xbd51e3d8	-0.05124268
157	0xbe24317c	-0.16034502
158	0x3d48c9d8	0.04902062
159	0x3ce1fe00	0.027586937
160	0xbdb52e35	-0.08846704
161	0xbdbb18d7	-0.09135597
162	0x3e0536f1	0.1300924
163	0x3d58b3f2	0.052905984
164	0xbb73d310	-0.003720466
165	0x3e05872f	0.1303985
166	0x3dc2858e	0.0949813
167	0xbd26d68b	-0.040731948
168	0xbe463e66	-0.1935974
169	0xbda795b5	-0.08182851
170	0x3d922b88	0.07137209
171	0x3d0d8bd6	0.034557186
172	0xbe167a95	-0.14695199
173	0x3d95477f	0.072890274
174	0x3d8ae31e	0.067816004
175	0xbde3c5a6	-0.11121683
176	0xbdea2557	-0.11432903
177	0x3c0462d8	0.008080207
178	0xbd611181	-0.054948334
179	0x3c5a487e	0.013322948
180	0xbe197ace	-0.14988253
181	0x3e2ecfc4	0.17071444
182	0xbccb65d2	-0.024828825
183	0x3c953eae	0.018218365
184	0x3dd10602	0.10206224
185	0x3d8a3580	0.067484856
186	0xbdb9f57e	-0.09080027
187	0x3dc0d4b9	0.094155736
188	0xbe54332c	-0.20722646
189	0x3dcf9a23	0.10136821
190	0xbe0efb3a	-0.13963023
191	0xbac4405f	-0.0014972797
192	0xbc5c869a	-0.013459826
193	0xbe06fca7	-0.13182317
194	0xbd65c608	-0.05609706
195	0x3d97fbc1	0.07421065
196	0xbe2de92d	-0.16983481
197	0x3ce06832	0.027393434
198	0xbd3370ec	-0.043808863
199	0xbdc3a370	-0.095526576
200	0x3deef3b7	0.11667579
201	0xbe7c0621	-0.24611713
202	0xbd433707	-0.0476599
203	0xbe199899	-0.14999618
204	0x3dfc5a1f	0.12321877
205	0xbe4ced58	-0.20012414
206	0x3e33d21f	0.17560624
207	0x3d06f55e	0.032948844
208	0xbe205cfb	-0.15660469
209	0x3e33402b	0.17504947
210	0x3cc99644	0.024607785
211	0x3d4350b7	0.047684398
212	0x3c7736a0	0.015088707
213	0xbd8a042a	-0.067390755
214	0xbeab58bc	-0.33466136
215	0xbdf00e03	-0.117214225
216	0xbe159602	-0.14608005
217	0x3c0cfc46	0.008605069
218	0x3cb4588e	0.022014882
219	0xbe11f9a8	-0.14255393
220	0x3cf93f25	0.030425617
221	0xbd11cfcb	-0.035598557
222	0x3de81104	0.113313705
223	0x3d197146	0.03746154
224	0x3da27a5c	0.079334944
225	0x3e072abe	0.13199899
226	0x3e3362b3	0.1751812
227	0xbd662d91	-0.0561958
228	0xbdd00f6e	-0.10159193
229	0xbc9f3120	-0.019432604
230	0xbe09101a	-0.13385049
231	0xbd10a38d	-0.035312224
232	0xbe825549	-0.25455692
233	0x3e3e2e9d	0.18572469
234	0xbdef226a	-0.11676486
235	0xbd3a878e	-0.04553943
236	0x3db99b64	0.090628415
237	0xbd954705	-0.072889365
238	0x3d26d664	0.040731803
239	0xbe383064	-0.1798721
240	0x3cbb08c7	0.022831334
241	0x3e01c465	0.12672575
242	0xbd0e0ab5	-0.03467818
243	0xbe54d019	-0.20782508
244	0xbc20712b	-0.009792606
245	0x3e291f1f	0.16515778
246	0xbe6324d2	-0.22182015
247	0xbe0054fe	-0.12532422
248	0xbe486ea6	-0.19573459
249	0xbd9b470c	-0.075819105
250	0x3e404ad2	0.18778542
251	0x3e4ddf13	0.20104627
252	0xbdc8ca11	-0.09804166
253	0xbd0ea62d	-0.034826446
254	0xbe802d92	-0.25034767
255	0x3d919b15	0.07109658

weight f4 [256, 256]
0	0xbd8bb5e8	-0.06821805
1	0xbcb4a2e5	-0.02205033
2	0xbc4bd480	-0.012440801
3	0x3c95a3b0	0.018266529
4	0xbbc085d9	-0.005875331
5	0x3cf0c514	0.02939085
6	0x3d0e5669	0.034750376
7	0x3bb5a007	0.0055427584
8	0xbd951c76	-0.07280819
9	0xbc4c44f8	-0.012467615
10	0x3c700754	0.014650185
11	0xbd7169fd	-0.05893897
12	0xbd609a18	-0.054834455
13	0x3b21cc92	0.0024688584
14	0xbcd9547c	-0.026529543
15	0x3c67e00e	0.01415254
16	0xb9e23237	-0.00043143492
17	0xbcd7333c	-0.026269548
18	0x3b5d9182	0.0033808653
19	0xbd98b291	-0.07455934
20	0x3d2e20b8	0.04251167
21	0xbbbde0ba	-0.0057946118
22	0xbd9c3f1f	-0.07629227
23	0xbd5c4320	-0.053774953
24	0xbc75203a	-0.014961297
25	0xbd767df8	-0.060178727
26	0x3d1ddc6c	0.03854029
27	0xbd988a54	-0.07448259
28	0xbd574ac0	-0.05256152
29	0xbc26a3db	-0.010170902
30	0x3cc04f8d	0.023475433
31	0x3c4d5181	0.012531639
32	0xbd0288dd	-0.031868804
33	0xbd31a6fe	-0.043372147
34	0x3a5df055	0.0008466293
35	0xbd71eea2	-0.05906547
36	0xbc448ceb	-0.011996488
37	0xbd92a6d0	-0.07160723
38	0xbc0b77da	-0.008512462
39	0x3c0249c6	0.007952159
40	0xbd94037c	-0.07227227
41	0xbca5133c	-0.020150773
42	0xbb47c9bf	-0.003048524
43	0xbcb3f394	-0.021966733
44	0xbd6ada7e	-0.057337277
45	0x3b24c88e	0.0025143954
46	0xbc8843f7	-0.01663397
47	0x3c80637b	0.015672436
48	0xbd1475bc	-0.036245093
49	0x3c9430a7	0.018089605
50	0x3ba20c38	0.0049453042
51	0xbda7590c	-0.08171281
52	0x3cbbb802	0.02291489
53	0x3d0ac026	0.033874653
54	0xbd905385	-0.0704718
55	0xbd5a0304	-0.053225532
56	0xbcd9e390	-0.026597768
57	0xbd6fea72	-0.058573194
58	0x3be583c1	0.0070042317
59	0x3cf34126	0.029694151
60	0xbd1244ce	-0.03571015
61	0xbda86883	-0.08223059
62	0xbd76a40a	-0.060215034
63	0xbcb6d1df	-0.022316871
64	0xbcb2fc3d	-0.021848792
65	0x3cb2f3cc	0.021844767
66	0x3caaff75	0.020873765
67	0xbd0942e8	-0.033511072
68	0xbd5d10a5	-0.05397095
69	0xbba21e7d	-0.004947482
70	0xbda3e185	-0.08001999
71	0xbcab1517	-0.02088408
72	0xbd2ec764	-0.042670622
73	0x3cf44489	0.029817836
74	0xbcb5dd1c	-0.02220016
75	0xbb1c8a47	-0.002388613
76	0xbd33a37e	-0.04385709
77	0x39d8a52d	0.00041321796
78	0xbd8b6214	-0.06805816
79	0xbd87e432	-0.06635322
80	0xbd8ab9d3	-0.067737244
81	0x3bb1bb3f	0.005423933
82	0xbd69fa16	-0.057123266
83	0xbc9c1bd1	-0.019056233
84	0xbd8ca5b4	-0.06867543
85	0xbcc179a6	-0.023617577
86	0xbda77181	-0.08175946
87	0x3cd704cc	0.026247405
88	0xbd3e3f61	-0.04644716
89	0xbda6be6d	-0.081417896
90	0x3cb66222	0.02226359
91	0xbce04f5c	-0.027381591
92	0xbd7902c5	-0.060793657
93	0xbd2a69e6	-0.0416049
94	0xbd52888e	-0.05139976
95	0xbb516bc5	-0.0031955105
96	0xbd2a5651	-0.041586224
97	0x3d003269	0.031298075
98	0xbcfe23c8	-0.031022921
99	0x3cc6a0b2	0.024246547
100	0xbda6f487	-0.08152109
101	0xbda3d21c	-0.079990596
102	0xbd59f4cf	-0.053211983
103	0xbcd5fc30	-0.026121229
104	0xbd2c42c4	-0.04205586
105	0xbd0edd30	-0.03487891
106	0xbd838f78	-0.06423849
107	0x3d12d25d	0.03584515
108	0xbb8ab8c5	-0.004233452
109	0xbba8cd01	-0.0051513915
110	0xbc0d4f30	-0.008624837
111	0x3c813b90	0.015775472
112	0xbc30c7e6	-0.010789847
113	0xbd4892fe	-0.048968308
114	0xbc96f716	-0.018428367
115	0x3cfe1058	0.031013653
116	0x3cb77f41	0.022399547
117	0xbca84b6d	-0.020543778
118	0xbd4459dd	-0.047937263
119	0xbd9f19da	-0.07768603
120	0xbd95bc4c	-0.073113054
121	0xbd9d87f2	-0.07691945
122	0xbc6f34c6	-0.0145999845
123	0xbce2b70a	-0.02767517
124	0xbd51a337	-0.051181044
125	0xbd7ab70e	-0.06120973
126	0xbd268b20	-0.040660024
127	0x3cbe5a19	0.023236321
128	0x3cefbe69	0.0292656
129	0xbc539d44	-0.012915913
130	0xbce7b6e1	-0.028285446
131	0x3d0999be	0.033593886
132	0x3cefad0f	0.029257325
133	0xbd8148c6	-0.063127086
134	0x3d2298d8	0.039696544
135	0x3d17a45b	0.037021976
136	0xbd214ad6	-0.03937801
137	0xbd8c0663	-0.06837156
138	0xbb8a76b9	-0.0042255786
139	0xbd3cfe01	-0.046140675
140	0xbb48bf9f	-0.0030631793
141	0x3cd2059b	0.025637439
142	0xbda7f64d	-0.08201275
143	0xbd0d0037	-0.034424033
144	0xbd891453	-0.0669333
145	0x3d101d8c	0.035184428
146	0xba7863bd	-0.00094753114
147	0xbda6949a	-0.08133812
148	0x3c884d27	0.016638352
149	0xbd917122	-0.071016565
150	0xbd769e65	-0.06020965
151	0xbb746de9	-0.0037296957
152	0xbd595609	-0.053060565
153	0xbd8b210f	-0.06793415
154	0xbd97768d	-0.07395659
155	0xbd9c5e74	-0.07635203
156	0xbbd5cad7	-0.0065244245
157	0xbce157b4	-0.02750764
158	0xbd4e1e1a	-0.050321676
159	0xbc8e09c5	-0.017338643
160	0xbcbc48a7	-0.022983862
161	0x3d2cbd79	0.042172883
162	0xbc1358a7	-0.008993304
163	0xbd64291a	-0.05570326
164	0xbd4af4a1	-0.049549703
165	0xbd4cdbe9	-0.05001441
166	0xbd8858e6	-0.06657581
167	0xbd09382f	-0.033500846
168	0x3cf24725	0.02957494
169	0xbb8f2ce3	-0.0043693646
170	0xbc465ee8	-0.012107588
171	0xbcaca438	-0.0210744
172	0xbda60d12	-0.08107962
173	0xbc8548ab	-0.016270002
174	0xbca7bd3c	-0.020475976
175	0x3c2c8558	0.0105298385
176	0xbb87ffc8	-0.0041503645
177	0xbab39d7e	-0.0013703553
178	0xbd43aa52	-0.047769852
179	0xbd580503	-0.052739155
180	0xbd776b9f	-0.06040537
181	0xbd950625	-0.072765626
182	0xbd9f1d90	-0.077693105
183	0xbd35f7c1	-0.04442573
184	0xbc32f3b2	-0.010922359
185	0xbd597c1c	-0.053096876
186	0xbc4830b9	-0.012218648
187	0xbda8ad4e	-0.0823618
188	0x3d1aa0b2	0.037750907
189	0xbc507158	-0.012722336
190	0x3ce7d6ae	0.02830061
191	0xbda376de	-0.079816565
192	0x3c617724	0.0137613155
193	0xbceddbfc	-0.02903556
194	0xbd4c504a	-0.049881257
195	0xbda8d969	-0.08244593
196	0x3c9ca19b	0.019120028
197	0xbc8a66df	-0.016894756
198	0x3c801d89	0.015639083
199	0xbd42b799	-0.047538374
200	0x3b59d148	0.0033236314
201	0xbd24b09c	-0.04020749
202	0x3d1978d4	0.037468746
203	0xbd0c8a1b	-0.034311395
204	0x3b97b94b	0.004630243
205	0x3c2f6102	0.010704281
206	0xbd7911c0	-0.060807943
207	0x3d8e0f1f	0.06936478
208	0xbbd164d7	-0.006390195
209	0xbd5071ff	-0.050889965
210	0xbcdcf27f	-0.0269711
211	0xbb2903ca	-0.0025789612
212	0xbd4684b9	-0.048466418
213	0xbcb5728c	-0.022149347
214	0xbd285be7	-0.04110327
215	0xbbbfbac6	-0.0058511226
216	0xbd732a27	-0.05936637
217	0xbda7d5e0	-0.0819509
218	0xbc99cc1f	-0.01877409
219	0xbc50798b	-0.012724291
220	0x3d186207	0.03720286
221	0xbc6b37fd	-0.01435661
222	0xbc934fa2	-0.017982308
223	0xbc84d693	-0.016215598
224	0x3d0f5d74	0.035001233
225	0xbd6a4cc6	-0.057202123
226	0xbd04f93c	-0.03246425
227	0xbc886d89	-0.016653793
228	0xbd47d505	-0.048787136
229	0xbbc3fd9f	-0.0059811617
230	0x3d082f1a	0.033248045
231	0x3c3a8091	0.011383192
232	0xbd87d4a4	-0.06632355
233	0x3cd76e48	0.026297703
234	0x3c29bd6a	0.010360101
235	0x3cbb7d71	0.022886964
236	0x3caa9a5b	0.020825556
237	0x3c452708	0.012033232
238	0xbd8408ca	-0.06446989
239	0x3d13eb8f	0.036113318
240	0xbd2ae64b	-0.04172353
241	0xbdaf4ff3	-0.08560171
242	0xbc509de6	-0.012732958
243	0xbd86e068	-0.06585771
244	0xbd8b57a2	-0.06803824
245	0xbda9a517	-0.082834415
246	0x3c4916a9	0.012273469
247	0xbd1418f7	-0.03615662
248	0x3bc833ca	0.0061096894
249	0x3d0d44f4	0.034489587
250	0x3c546642	0.012963833
251	0xbca7d733	-0.020488357
252	0xba62fc99	-0.0008658856
253	0x3c762397	0.015023134
254	0xbd7c4f9d	-0.061599363
255	0x3cf1ed54	0.029532112

bias f4 [256]
0	0xbd765364	-0.06013812
1	0x3ea49519	0.32145002
2	0x3da822d6	0.082097694
3	0x3f09090e	0.5352944
4	0x3e5aa705	0.21352775
5	0x3c7ae0da	0.015312398
6	0x3eae4c52	0.34042603
7	0x3dd7e357	0.105414085
8	0x3e7b84e7	0.24562417
9	0x3e0687c5	0.1313773
10	0xbccf2468	-0.025285915
11	0x3e2cf8b7	0.16891752
12	0x3e877609	0.2645724
13	0x3d0c5956	0.034264885
14	0x3e7e0aac	0.24808758
15	0x3e8cb66c	0.27482927
16	0xbdd1e8a2	-0.10249449
17	0x3e0f2fef	0.13983129
18	0xbd212fdb	-0.03935228
19	0x3e897397	0.26846
20	0x3eb8226e	0.35963768
21	0x3e3330e9	0.17499126
22	0x3e4d7122	0.20062688
23	0x3e960a80	0.29304886
24	0x3e2351b3	0.15949135
25	0x3f071f12	0.52781785
26	0x3e8c1572	0.2736011
27	0xbc874f47	-0.016517295
28	0x3e85115f	0.25989816
29	0x3e19e86d	0.1503007
30	0x3e381ce3	0.1797977
31	0x395f73bc	0.00021310052
32	0x3e7ec77a	0.24880782
33	0x3cef2cea	0.029196221
34	0x3ca5d2dc	0.020242147
35	0x3e78d100	0.24298477
36	0x3e6141be	0.21997735
37	0x3e886832	0.26641995
38	0xbcfa6f10	-0.030570537
39	0xbd566892	-0.05234582
40	0x3ec0f0b7	0.3768365
41	0x3e83dbbb	0.2575358
42	0x3e5d1a3c	0.21592039
43	0x3e96be18	0.29441905
44	0x3d34ecdd	0.044171203
45	0xbd927c44	-0.07152608
46	0xbd983657	-0.074322395
47	0x3e668d70	0.22514892
48	0x3c93ab4d	0.018026019
49	0xbcb1f0eb	-0.021721324
50	0x3e44db19	0.19224204
51	0x3ec63eba	0.38719732
52	0x3e94e7d8	0.29083133
53	0x3e590d0c	0.21196383
54	0xbd6c931f	-0.057757493
55	0x3e4ded2c	0.20110005
56	0xbc6c33f6	-0.014416685
57	0x3db8f163	0.09030416
58	0x3dba6639	0.09101529
59	0x3d62b8c2	0.05535198
60	0x3ea2eb22	0.31820017
61	0x3e9c090e	0.30475658
62	0x3ea7d744	0.32781422
63	0x3e728d62	0.23686746
64	0x3ed283bf	0.4111614
65	0x3e2ed63f	0.17073916
66	0x3e16a4c3	0.14711289
67	0x3e087893	0.13327245
68	0x3e8c1ae1	0.27364257
69	0x3e0545df	0.13014935
70	0x3e2ed8c5	0.17074879
71	0xbd251323	-0.040301453
72	0x3e62656b	0.22109
73	0x3e1ac378	0.15113628
74	0x3da91e99	0.08257789
75	0xbd847646	-0.06467871
76	0xbd9d1a72	-0.0767106
77	0x3e35fa38	0.17771232
78	0xbc883bfd	-0.016630167
79	0x3d9a512c	0.075350136
80	0x3e6e4599	0.23268737
81	0x3e8a4e65	0.27012935
82	0x3e9de4d5	0.30838647
83	0xbd6c72cf	-0.057726678
84	0x3da56e15	0.08077637
85	0xbc18d7c1	-0.0093287835
86	0x3e9ff4ba	0.312414
87	0x3e97498b	0.29548296
88	0xbb768df3	-0.003762123
89	0x3e285d53	0.1644185
90	0x3da9bca7	0.08287936
91	0x3e60645c	0.21913284
92	0x3e97d9fb	0.29658493
93	0x3c492fe4	0.012279484
94	0x3e325a4e	0.17417261
95	0x3d3828d8	0.044960827
96	0xbd05bc7d	-0.03265046
97	0xbd88aad7	-0.0667321
98	0x3e5f5270	0.21808791
99	0xbd95d89e	-0.07316707
100	0x3e601d69	0.21886219
101	0xbd737432	-0.059436984
102	0x3e891577	0.2677419
103	0x38d53889	0.00010167162
104	0xbbe7ddca	-0.007076
105	0xbd19775b	-0.037467342
106	0x3e75f9c0	0.24021053
107	0x3e0b2fb5	0.13592418
108	0x3e73dc40	0.23814487
109	0x3dd47d99	0.10375518
110	0x3e173722	0.14767125
111	0xbda84cda	-0.08217783
112	0x3e1e57e4	0.15463215
113	0x3e95d2c7	0.29262373
114	0x3cbae503	0.02281428
115	0xbc7c55e7	-0.01540134
116	0xbc36968c	-0.011144292
117	0xbd1052a4	-0.035235062
118	0x3dfc5f0a	0.12322815
119	0xbdbd49f3	-0.0924262
120	0x3e571582	0.21004298
121	0x3d83f755	0.06443659
122	0x3cc95ed9	0.02458136
123	0x3ec8eb8c	0.39242208
124	0x3dae0b15	0.084982075
125	0x3e92d094	0.28674757
126	0xbd2ecbb4	-0.042674735
127	0x3e8fe915	0.28107515
128	0x3d99dff2	0.07513417
129	0xbd8c29de	-0.06843923
130	0x3edc3c37	0.4301469
131	0x3dcdef86	0.10055451
132	0xbd2ab9bf	-0.041681048
133	0x3d1a3b5d	0.03765427
134	0x3cb13611	0.021632226
135	0xbc99043e	-0.01867878
136	0x3e54ce10	0.20781732
137	0x3e15b534	0.14619905
138	0x3e44424f	0.1916592
139	0xba7c0be8	-0.0009614811
140	0xbde0a1d5	-0.10968367
141	0x3d26a870	0.04068798
142	0x3dcd1ca6	0.1001523
143	0x3e5693ce	0.2095482
144	0x3e06dc78	0.1317004
145	0x3c8795b3	0.016550874
146	0x3db28f45	0.08718733
147	0x3e20629a	0.15662614
148	0xbd942db6	-0.07235281
149	0x3cffa658	0.031207249
150	0x3e30d402	0.17268375
151	0xbd07882a	-0.03308884
152	0x3dbdf071	0.09274376
153	0x3e184413	0.14869718
154	0x3dbd0c24	0.09230831
155	0x3da21711	0.07914556
156	0x3e7861f4	0.24256116
157	0x3e23716f	0.1596124
158	0xbd2a59f8	-0.041589707
159	0x3e2ce320	0.16883516
160	0xbcfb5c25	-0.030683586
161	0x3e678393	0.22608785
162	0x3dc67281	0.09689809
163	0xbd27a15c	-0.04092537
164	0x3e8f629e	0.28004926
165	0x3e14318e	0.14472029
166	0x3bfb5a62	0.0076706866
167	0xbd91b633	-0.0711483
168	0x3e716d64	0.23576885
169	0x3dde6d9d	0.10860751
170	0x3e93d9ac	0.28877008
171	0x3eaece6d	0.34141865
172	0x3cd3aa0a	0.025837917
173	0x3e91c7c5	0.28472725
174	0x3d938136	0.072023794
175	0x3e09af57	0.13445793
176	0x3d9a1286	0.07523064
177	0x3e756110	0.23962808
178	0xbce59258	-0.028023884
179	0x3e0658e9	0.13119854
180	0xbd242cbe	-0.040081732
181	0x3e7cf182	0.24701503
182	0x3cb3c1d7	0.021943016
183	0x3ef7a62f	0.48368976
184	0x3e508e89	0.20366873
185	0x3db2c5d7	0.08729141
186	0x3e8a1c4e	0.2697472
187	0x3de97a9c	0.11400339
188	0x3e31656f	0.1732385
189	0x3e1bce55	0.15215428
190	0xbd28925c	-0.041155204
191	0x3eac8768	0.33697057
192	0xbd4823ca	-0.048862256
193	0x3e07fbb7	0.13279615
194	0x3e8c380f	0.2738652
195	0x3edf763e	0.436449
196	0x3edafebf	0.4277248
197	0x3e7c4629	0.24636139
198	0x3e217820	0.1576848
199	0x3c8f638b	0.01750352
200	0x3e0cca30	0.13749003
201	0xbd7ca2c8	-0.061678678
202	0xbd572bed	-0.052532125
203	0x3e0133bd	0.12617393
204	0x3e582073	0.21106128
205	0x3dbac3e0	0.091193914
206	0x3e3e6467	0.18592988
207	0x3e6c70cb	0.23089902
208	0xbd2d4194	-0.04229887
209	0xbd921ea4	-0.071347505
210	0x3ddfcef9	0.10928149
211	0x3e1e750a	0.15474334
212	0xbd717810	-0.05895239
213	0xbc408d0c	-0.011752378
214	0x3e74624d	0.23865624
215	0x3e2df0f4	0.16986448
216	0x3e843f95	0.2582976
217	0x3dc6efa9	0.0971368
218	0x3e2f1c2f	0.17100595
219	0xbd11d981	-0.03560782
220	0x3dcccfa1	0.100005396
221	0xbce7f0cb	-0.028313061
222	0xbd8d48c1	-0.06898642
223	0x3df6c3a1	0.12049032
224	0x3e4f1003	0.20220952
225	0x3d12ad2f	0.035809692
226	0xbbf93bd3	-0.0076060086
227	0xbd8b94bb	-0.068154775
228	0x3ea33cc0	0.31882286
229	0xbb89724f	-0.004194535
230	0x3d7aaaf3	0.061198186
231	0x3e8828d9	0.26593664
232	0x3bb4c18e	0.0055162376
233	0x3db4e2d7	0.08832329
234	0x3e8bfe6a	0.2734254
235	0x3e9d93ac	0.30776727
236	0xbd69417d	-0.05694722
237	0x3e6bfb4d	0.23045082
238	0x3cdeb10a	0.027184028
239	0x3e827c81	0.25485614
240	0x3e0b9f5b	0.13635008
241	0x3e235b13	0.15952711
242	0x3e12b587	0.1432706
243	0xbd2c063e	-0.04199814
244	0xbda285cd	-0.07935677
245	0x3e76ab16	0.24088702
246	0x3e9b16fa	0.30290967
247	0x3d0c2fb3	0.034225177
248	0xbd0c530b	-0.034258883
249	0x3e9db207	0.30799887
250	0x3e0ddf64	0.13854748
251	0x3e3579ee	0.17722294
252	0x3ceb9316	0.02875666
253	0x3da49d09	0.080377646
254	0x3eabc4b7	0.3354852
255	0xbd748324	-0.059695378

weight f4 [256, 256]
0	0x3c9525a7	0.01820643
1	0x3d26757b	0.04063938
2	0x3c6382d8	0.013886176
3	0x3caaaecd	0.020835305
4	0xbd9209ee	-0.071308
5	0xbcc91a78	-0.024548754
6	0xbda47970	-0.08030975
7	0xbc2ef06f	-0.010677441
8	0xbd7dc9e7	-0.061960127
9	0xbd5afe28	-0.05346504
10	0xbb89acdd	-0.004201515
11	0x3b59eed2	0.003325392
12	0xbdbdda3c	-0.092701405
13	0xbc1dc8cb	-0.009630392
14	0x3c83be77	0.016082032
15	0xbd196ac9	-0.037455354
16	0xbc374e93	-0.011188167
17	0x3c42c80e	0.011888517
18	0xbcc6aa22	-0.024251048
19	0x3cc459bc	0.02396857
20	0xbd681ecc	-0.056669995
21	0xbd78e138	-0.06076166
22	0xbcab48f0	-0.020908803
23	0xbd895178	-0.06704992
24	0xbbeccb70	-0.0072264
25	0x3d1dc0ce	0.03851395
26	0xbd5e5e3e	-0.054289095
27	0xbd937ad4	-0.07201162
28	0x3d1a8869	0.037727747
29	0x3c816d3e	0.015799161
30	0xbc3d2fbd	-0.011547026
31	0xbcc4c4f5	-0.024019698
32	0x3d9a5a72	0.07536782
33	0xbd80c5a6	-0.062876984
34	0xbcf22b0d	-0.029561544
35	0x3baa89ae	0.005204401
36	0xbd75fa62	-0.060053237
37	0x3a9a6514	0.0011779391
38	0xbd6d72d9	-0.057970855
39	0xbd675443	-0.056476843
40	0xbd2d01d6	-0.04223808
41	0x3c853d2a	0.016264517
42	0xbcf83709	-0.03029968
43	0xbceb8ac5	-0.028752694
44	0x3cd5d6c0	0.026103377
45	0xbd9ecef9	-0.07754321
46	0xbc01195e	-0.007879583
47	0x3d90867b	0.070569
48	0xbd71ce10	-0.059034407
49	0xbccd42b9	-0.02505623
50	0xbd7c2b93	-0.061564993
51	0xbc853216	-0.016259234
52	0x3bbd205d	0.0057716803
53	0x3b996597	0.0046813
54	0xbda16351	-0.07880271
55	0xbd1fb055	-0.038986523
56	0xbd99e71a	-0.07514782
57	0x3d159c06	0.03652575
58	0xbd2a5b2b	-0.04159085
59	0xbd05b936	-0.032647334
60	0xbe011c74	-0.1260851
61	0xbd7cc41d	-0.061710466
62	0x3c710efd	0.014713046
63	0xbd60af70	-0.05485481
64	0xbd7d14f7	-0.06178757
65	0xbd893d19	-0.067011066
66	0xbd83c52b	-0.06434091
67	0xbd750323	-0.059817445
68	0x3cedf2fd	0.02904653
69	0x3c890da6	0.01673014
70	0x3c46f59f	0.012143522
71	0x3c894798	0.016757771
72	0xbd8facf4	-0.0701541
73	0x3d193d4a	0.037411965
74	0xbc977d38	-0.018492326
75	0x3c9a2e36	0.018820863
76	0xbd9d1a53	-0.076710366
77	0x3ccad772	0.024760935
78	0x3d0b8954	0.034066513
79	0x3dc71979	0.097216554
80	0xbc7cf3d8	-0.015438996
81	0x3d3ca624	0.04605688
82	0xbd02964d	-0.03188162
83	0xbd94bab3	-0.072621725
84	0x3d3dc1ad	0.04632728
85	0xbd1403d4	-0.036136463
86	0xbc4afbb6	-0.012389114
87	0x3c6af36e	0.014340265
88	0xbcb12200	-0.021622658
89	0xbdbbab46	-0.09163527
90	0x3c994661	0.018710317
91	0xbd91bc64	-0.07116011
92	0x3c0bf101	0.0085413465
93	0x3cf5b11a	0.029991675
94	0xbce4ba10	-0.027920753
95	0xbd81d818	-0.06340045
96	0x3cf88f37	0.030341728
97	0xbce62769	-0.028094964
98	0xbbbec32a	-0.005821605
99	0xbd708f9d	-0.05873071
100	0xbd825c51	-0.06365264
101	0x3ce1503f	0.027504085
102	0x3c9601d9	0.018311428
103	0xbda772a7	-0.08176165
104	0xbc7f6ea3	-0.015590343
105	0x3d99b52d	0.0750526
106	0xbd816c32	-0.06319465
107	0x3c7ab4b3	0.015301871
108	0xbd37cb72	-0.044871755
109	0x3dcec609	0.10096366
110	0xbcdf098f	-0.027226238
111	0xbd8dbb95	-0.06920544
112	0x3d2db0d0	0.04240495
113	0xbd3d9d2f	-0.04629248
114	0xbd964438	-0.073372304
115	0xbd424895	-0.0474325
116	0x3d29d8ef	0.04146665
117	0xbc3faafc	-0.011698481
118	0xbcdf4ace	-0.02725735
119	0x3c9708f8	0.018436894
120	0xbd863425	-0.065529145
121	0x3cdcdb20	0.026959956
122	0x3cea98a0	0.02863723
123	0x3c30f603	0.010800841
124	0xbd82199f	-0.06352543
125	0x3cbeda59	0.023297476
126	0xbd5bab11	-0.05362994
127	0xbc152ed4	-0.009105403
128	0x3d0a5eb6	0.03378173
129	0xbd54c26a	-0.05194322
130	0xbc4cdd90	-0.0125039965
131	0x3d17c78d	0.03705554
132	0xbc642fc9	-0.0139274085
133	0xbd75e412	-0.060031958
134	0xb9a5491b	-0.0003152572
135	0xbd2eaa83	-0.04264308
136	0x3cf5a9ee	0.029988255
137	0x3c5c75c7	0.013455815
138	0xbce87832	-0.028377626
139	0x3c8c2b46	0.017110478
140	0xbcbb59a2	-0.022869889
141	0xbc75bba0	-0.014998347
142	0xbdd52b24	-0.10408619
143	0x3c39271b	0.011300827
144	0xbd370013	-0.044677805
145	0xbd856182	-0.06512739
146	0xbc5231de	-0.012829272
147	0x3d1f695b	0.038918834
148	0xbd51b4bd	-0.051197756
149	0xbd29c30e	-0.041445784
150	0xbd50ba62	-0.050959
151	0x3cbfa844	0.023395665
152	0xbca53a51	-0.020169409
153	0xbd706b65	-0.05869617
154	0x3cf40662	0.0297882
155	0xbcfee309	-0.031114118
156	0xbd8e7f1c	-0.06957838
157	0x3ba916d0	0.00516019
158	0xbda2d873	-0.07951441
159	0xbde91ad4	-0.1138207
160	0xbd56a41d	-0.052402604
161	0x3c818f6c	0.01581546
162	0x3b9ca6c1	0.004780621
163	0x3c3384d2	0.01095696
164	0x3bbeb1c5	0.0058195316
165	0xbd80ec1f	-0.062950365
166	0x3d207cd9	0.039181564
167	0xbd6b92ae	-0.05751293
168	0x3cdd4771	0.027011605
169	0xbd237c8d	-0.039913703
170	0xbd304a2f	-0.043039497
171	0xbc1e1fa3	-0.0096510975
172	0xbd8fc982	-0.070208564
173	0xbc160c60	-0.009158224
174	0xbc3b61e7	-0.011436916
175	0x3d71c709	0.059027705
176	0xbcfd9821	-0.03095633
177	0x3ce20b98	0.027593419
178	0xbaecccad	-0.0018066369
179	0xbc44f4f5	-0.012021293
180	0xbd8e4d8a	-0.06948383
181	0xbd410210	-0.047121108
182	0xbd52b633	-0.05144329
183	0x3d0d2aaf	0.034464534
184	0xbd2bee1d	-0.04197513
185	0xbd111a92	-0.03542573
186	0xbdac8629	-0.084240265
187	0xbd27e024	-0.04098524
188	0x3c735ecd	0.014854145
189	0xbd2e1641	-0.04250169
190	0x3ce587ce	0.028018858
191	0xbc688d36	-0.014193824
192	0xba9bde65	-0.001189184
193	0xbadaf932	-0.0016706346
194	0xbda428f8	-0.08015627
195	0xbd6d19f0	-0.057886064
196	0xbcd2fb11	-0.025754483
197	0x3d0946b3	0.03351469
198	0xbda8a528	-0.08234626
199	0xbc8d0d0d	-0.017218137
200	0x3d27a97a	0.04093311
201	0x3d303f4b	0.04302911
202	0xbd6c0597	-0.05762252
203	0xbd46589a	-0.04842434
204	0xbcea9422	-0.028635088
205	0x3b9e1889	0.004824702
206	0xbbd6ce17	-0.0065553295
207	0xbd02ec90	-0.031963885
208	0xbd810681	-0.06300069
209	0xba7f9b11	-0.0009750585
210	0xbd5a853b	-0.053349715
211	0x3d0638b2	0.032768913
212	0x3cde91e2	0.027169172
213	0x3c872e74	0.016501643
214	0xbd60d9b8	-0.054895133
215	0xbc8255de	-0.015910085
216	0xbd81c040	-0.06335497
217	0xbcc7f951	-0.024410876
218	0xbcb6ecc9	-0.022329705
219	0xbd44f189	-0.04808191
220	0xbcd63986	-0.026150476
221	0xbd817bdb	-0.06322452
222	0x3d1cb48e	0.038258128
223	0xbd8c548c	-0.068520635
224	0xbcfe93d0	-0.031076342
225	0x3c6a0cb4	0.014285255
226	0xbd64f547	-0.055897977
227	0x3ab600af	0.0013885702
228	0xbd21ca84	-0.039499775
229	0xbc888066	-0.016662788
230	0x3b91e269	0.004452039
231	0xbbdc1fb6	-0.0067176474
232	0x3d30953b	0.043111067
233	0x3c467384	0.012112502
234	0x3c9fc3cd	0.019502545
235	0xbda494cb	-0.080361925
236	0x3d111193	0.03541715
237	0xbd923874	-0.07139674
238	0xbd5e8de9	-0.054334555
239	0xbc85dcdb	-0.016340664
240	0x3bc3d60c	0.005976444
241	0xbd2e9901	-0.042626385
242	0xbd280f1d	-0.04103004
243	0xbd929347	-0.07156997
244	0xbd690762	-0.056891806
245	0x3d3782da	0.044802524
246	0xbd498dd0	-0.04920751
247	0x3ccec09f	0.025238333
248	0x3be9c56f	0.0071341316
249	0xbd604643	-0.054754507
250	0xbd8497c6	-0.06474261
251	0xbcba87a2	-0.022769753
252	0xbd3a1f41	-0.045439962
253	0x3c997059	0.01873033
254	0x3d22b910	0.03972727
255	0xbda1c845	-0.078995265

weight f4 [47, 256]
0	0x3d05c039	0.03265402
1	0xbe88023b	-0.26564202
2	0xbdd19143	-0.102327846
3	0xbe9f3dc0	-0.311018
4	0x3daa7db8	0.0832476
5	0xba70305b	-0.0009162479
6	0xbe755703	-0.23958974
7	0x3df201cd	0.1181675
8	0x3b3241f6	0.002719996
9	0xbdc4ffb0	-0.09619081
10	0xbc023325	-0.007946764
11	0xbe0809e7	-0.13285027
12	0x3d6ac308	0.057314903
13	0x3db64da6	0.08901529
14	0xbdd39e59	-0.10332937
15	0x3e20f862	0.1571975
16	0x3bbb6822	0.0057192007
17	0x3c548136	0.012970259
18	0x3be7bfae	0.0070724105
19	0xbdc4e0a3	-0.096131586
20	0x3df6605d	0.120300986
21	0xbe1f5ae8	-0.15562022
22	0x3d9adf6c	0.075621456
23	0x3bb70961	0.005585835
24	0xbe34edeb	-0.17668884
25	0xbe48a123	-0.19592719
26	0x3e86f3ec	0.26357973
27	0xbe0043e1	-0.12525894
28	0xbd21169a	-0.039328195
29	0x3d4d135a	0.050067283
30	0xbde54566	-0.11194877
31	0xbc872315	-0.01649622
32	0xbd98b171	-0.07455719
33	0x3d8c8365	0.06860999
34	0xbde26782	-0.11054899
35	0xbe0a6dc9	-0.13518442
36	0x3de2af6a	0.11068614
37	0x3d11077e	0.035407536
38	0xbcf4fea5	-0.02990658
39	0x3dbe2882	0.0928507
40	0x3d138e4e	0.036024384
41	0x3eaff6c4	0.34367955
42	0x3dc81d0a	0.09771164
43	0xbd79f7aa	-0.061027206
44	0xbe05d022	-0.13067678
45	0x3cd9e398	0.026597783
46	0x3be69af4	0.007037515
47	0x3e0a931c	0.1353268
48	0x3d8fad7e	0.07015513
49	0x3baa6549	0.0052000624
50	0x3e014408	0.12623608
51	0x3e4c309f	0.19940422
52	0x3e86468e	0.26225704
53	0xbde38e7b	-0.1111116
54	0xbd143e97	-0.036192503
55	0x3df729d7	0.12068527
56	0xbc735606	-0.014852053
57	0xbced4b7d	-0.02896666
58	0x3dce2f33	0.10067596
59	0x3e098bce	0.13432238
60	0x3d43fcbd	0.047848452
61	0xbde869e3	-0.11348321
62	0xbc18c763	-0.009324881
63	0x3e15bd9b	0.1462311
64	0xbc2775e3	-0.0102209775
65	0x3e3c5d35	0.1839493
66	0x3c83bd24	0.0160814
67	0x3e11034c	0.14161414
68	0xbddf3b8c	-0.109000295
69	0xbde9f46c	-0.11423573
70	0x3d8c2645	0.06843237
71	0x3c7aac9c	0.015299942
72	0x3d619211	0.05507094
73	0xbe6e4674	-0.23269063
74	0xbe79321e	-0.24335524
75	0x3d7aa653	0.061193775
76	0xbcfa8781	-0.030582191
77	0xbe8fe405	-0.28103653
78	0x3d722d2f	0.05912512
79	0x3c8f82e7	0.017518474
80	0xbda6cb65	-0.08144263
81	0x3e1e5a91	0.15464236
82	0xbd07b151	-0.033128086
83	0xbd5f616e	-0.054536276
84	0x3e3927b1	0.18081547
85	0xbd018c6a	-0.03162805
86	0xbc81bade	-0.015836176
87	0xbdafbb21	-0.08580614
88	0xbd153554	-0.03642781
89	0x3b9c0cea	0.0047622817
90	0xbda50f69	-0.0805958
91	0x3e544b36	0.20731816
92	0xbea61e8e	-0.32445186
93	0xbbda3b27	-0.0066598835
94	0x3d3bd39e	0.04585611
95	0x3dc453c1	0.09586287
96	0xbb41d3d0	-0.0029575713
97	0x3d18e89b	0.037331205
98	0x3e6e4f14	0.23272353
99	0xbc494cc2	-0.012286367
100	0xbdf9a447	-0.121895365
101	0xbbf0e99b	-0.0073520667
102	0x3d86dd5c	0.0658519
103	0x3d95ad41	0.07308436
104	0xbd488be9	-0.048961554
105	0xbd0719fd	-0.03298377
106	0x3daef0b2	0.08542003
107	0xbd89de63	-0.0673187
108	0xbe6156e2	-0.220058
109	0x3d0ab0af	0.033859905
110	0x3d388a93	0.04505403
111	0x3da54149	0.08069093
112	0x3dbe68e7	0.09297352
113	0xbe2e417d	-0.1701717
114	0xbd3431f2	-0.043992944
115	0xbbf46830	-0.007458709
116	0xbdb3b55f	-0.08774828
117	0xbd103c75	-0.035213906
118	0xbe73bbac	-0.2380206
119	0xbcd9a7fd	-0.02656936
120	0xbc8c5bbd	-0.017133588
121	0x3c081c40	0.008307517
122	0x3d00e8f2	0.031472154
123	0x3e192b62	0.14957955
124	0xbd040967	-0.03223553
125	0xbe2ceff8	-0.16888416
126	0x3c958df1	0.01825616
127	0x3e05b4df	0.13057278
128	0x3cd4f533	0.025995826
129	0xbd10a98c	-0.035317943
130	0x3ded3e5b	0.11584159
131	0x3e2ead03	0.17058186
132	0x3b777370	0.0037758015
133	0x3c5bb039	0.013408714
134	0x3daf4380	0.085577965
135	0xbd10438f	-0.03522068
136	0xbd0ebc4b	-0.03484754
137	0x3d26ca08	0.040720016
138	0xbc299d88	-0.0103525
139	0x3dc3c6c2	0.095593944
140	0xbd5c1098	-0.053726763
141	0x3c237304	0.009976152
142	0xbca2a03e	-0.0198518
143	0xbe5ff62b	-0.2187125
144	0xbd9aa70f	-0.07551395
145	0xbd8e4d06	-0.06948285
146	0xbbab461c	-0.0052268635
147	0x3bf88a08	0.007584814
148	0x3d409330	0.04701537
149	0x3da16976	0.07881443
150	0xbd44d156	-0.0480512
151	0x3c7c8375	0.015412201
152	0xbdf0a358	-0.11749905
153	0xbd8d730b	-0.06906708
154	0x3dabcaa8	0.08388263
155	0x3cce5db6	0.02519117
156	0x3cfff37a	0.031244028
157	0xbd80e13f	-0.06292962
158	0x3d184daf	0.03718346
159	0x3dda3743	0.106550716
160	0x3d18532e	0.0371887
161	0x3e330bd5	0.17484982
162	0xbe159199	-0.14606322
163	0x3d1822c0	0.037142515
164	0xbe1e2331	-0.15443112
165	0x3da991e6	0.08279781
166	0x3c2625bb	0.010140832
167	0x3db4d70c	0.088300794
168	0x3cc5b2c0	0.024133086
169	0x3d275c84	0.040859714
170	0xbd7dba70	-0.06194538
171	0x3dd7c2d1	0.10535205
172	0x3d6266d7	0.055273857
173	0x3d8254d8	0.06363839
174	0xbd8ab0f9	-0.06772036
175	0x3ba06dbf	0.0048958953
176	0x3e05a384	0.13050658
177	0xbe20f7bc	-0.15719503
178	0x3d608b76	0.0548205
179	0x3e63d78b	0.22250192
180	0x3dceab2f	0.100912444
181	0x3decc86f	0.11561667
182	0xbc198c2f	-0.009371801
183	0xbece718b	-0.40321
184	0x3d558a5d	0.052133907
185	0xbd17ec0b	-0.037090342
186	0x3e4e4ef4	0.20147306
187	0xbc815ef3	-0.015792346
188	0xbe24c2fc	-0.16090006
189	0x3e2c0dc6	0.16802129
190	0x3d06c95d	0.03290688
191	0xbe2038b4	-0.1564663
192	0xbd9cac94	-0.07650104
193	0x3d9a1d95	0.075251736
194	0x3e4a24f5	0.1974066
195	0x3cf36616	0.029711764
196	0xbe30aaa3	-0.17252593
197	0xbe1524e8	-0.1456486
198	0xbd8e4374	-0.069464594
199	0x3d605537	0.054768767
200	0x3e303e21	0.172112
201	0xbc2fb8c7	-0.010725207
202	0xba8ae3c1	-0.001059644
203	0xbdedb69a	-0.11607094
204	0xbe8187ab	-0.2529882
205	0x3de5b7ea	0.112167194
206	0x3da15d77	0.07879155
207	0x3e5fd6ca	0.2185928
208	0xbd8de2dd	-0.06928036
209	0xbd2402ec	-0.04004185
210	0x3d1111fe	0.03541755
211	0x3c707662	0.014676662
212	0xbd0cb589	-0.034352813
213	0x3d5fb869	0.054619227
214	0x3e39a561	0.18129493
215	0xbe0684e4	-0.13136631
216	0xbe8cb71a	-0.27483445
217	0xbd980c9d	-0.07424281
218	0x3d5f06af	0.054449733
219	0x3d6d1cc8	0.057888776
220	0xbd849759	-0.0647418
221	0x3d01c38b	0.031680625
222	0x3cf7c18f	0.030243663
223	0x3c5fcf97	0.013660333
224	0xbd0c60a0	-0.034271836
225	0xbbfb6625	-0.0076720887
226	0x3d284515	0.041081507
227	0xbdba7c84	-0.09105781
228	0xbe7b0484	-0.24513441
229	0xbab29102	-0.0013623538
230	0xbd9a87f5	-0.07545463
231	0xbe568011	-0.20947291
232	0x3ca11374	0.019662596
233	0xbd5a22ee	-0.053255968
234	0x3e0a7e00	0.13524628
235	0xbd85c9e0	-0.06532645
236	0x3d8c6e7f	0.06857013
237	0xbbbd3ac6	-0.0057748286
238	0xbbcdf0fd	-0.0062848316
239	0xbe26ab53	-0.16276293
240	0x3e1a964b	0.15096395
241	0x3d68dc13	0.056850504
242	0x3e7745b9	0.24147691
243	0x3c37af75	0.011211266
244	0x3d521991	0.051293913
245	0xbd8719e4	-0.06596735
246	0xbe06b2cd	-0.13154145
247	0x3cb0e206	0.021592151
248	0xbcf503da	-0.029909063
249	0x3e01e47e	0.12684819
250	0xbdc32c66	-0.09529953
251	0xbdb5ed33	-0.08883133
252	0x3d29b09d	0.041428197
253	0xbdca6544	-0.09882596
254	0x3dad8330	0.08472288
255	0x3d3b0b76	0.045665227

bias f4 [47]
0	0x3d1becd5	0.038067658
1	0x3e1add88	0.1512357
2	0x3d517b29	0.051142845
3	0x3da5c5cc	0.080943674
4	0xbce4438f	-0.027864246
5	0xbd5711e3	-0.052507292
6	0x3e4f4e11	0.20244624
7	0x3d7573eb	0.059925
8	0x3e97b499	0.29629973
9	0xbb9c6e88	-0.0047739185
10	0x3d158d30	0.0365116
11	0x3d845816	0.064621136
12	0xbe4ca5ff	-0.19985197
13	0xbe506544	-0.2035113
14	0xbe6138fc	-0.21994394
15	0x3e4d287e	0.20034978
16	0x3bf22436	0.0073895706
17	0xbc2f6db2	-0.010707306
18	0xbe08e14d	-0.13367195
19	0x3ddbae42	0.107265964
20	0x3dae1080	0.08499241
21	0xbda876cd	-0.082257845
22	0xbd8d42c8	-0.06897503
23	0xbe89bab2	-0.2690025
24	0xbe976690	-0.29570436
25	0xbdba0081	-0.09082127
26	0xbe10b6b2	-0.14132193
27	0xbdbacd56	-0.09121196
28	0xbe9ca418	-0.30593944
29	0xbcdfd1a4	-0.027321644
30	0x3ce5a2e7	0.02803178
31	0xbe4eb2f8	-0.20185459
32	0xbe126392	-0.14295796
33	0xbdc886bc	-0.097913235
34	0xbd9da515	-0.076975025
35	0xbdafec82	-0.08590032
36	0xbdc1aa85	-0.09456352
37	0xbddeb035	-0.108734526
38	0xbd521b48	-0.05129555
39	0xbd048087	-0.032349136
40	0xbde4079a	-0.111342624
41	0xbda54cc9	-0.08071286
42	0xbcadecf2	-0.021231148
43	0xbd778152	-0.060426064
44	0xbdb78974	-0.08961764
45	0xbdf6e712	-0.12055792
46	0xbc7523fa	-0.014962191
